node {
  name: "Const"
  op: "Const"
  attr {
    key: "dtype"
    value {
      type: DT_FLOAT
    }
  }
  attr {
    key: "value"
    value {
      tensor {
        dtype: DT_FLOAT
        tensor_shape {
          dim {
            size: 56
          }
          dim {
            size: 56
          }
        }
        tensor_content: "…"
      }
    }
  }
}
node {
  name: "Const_1"
  op: "Const"
  attr {
    key: "dtype"
    value {
      type: DT_FLOAT
    }
  }
  attr {
    key: "value"
    value {
      tensor {
        dtype: DT_FLOAT
        tensor_shape {
          dim {
            size: 56
          }
          dim {
            size: 179
          }
        }
        tensor_content: "…"
      }
    }
  }
}
node {
  name: "raw_seqs_placeholder"
  op: "Placeholder"
  attr {
    key: "dtype"
    value {
      type: DT_FLOAT
    }
  }
  attr {
    key: "shape"
    value {
      shape {
        dim {
          size: -1
        }
        dim {
          size: 56
        }
        dim {
          size: 40
        }
      }
    }
  }
}
node {
  name: "scores_placeholder"
  op: "Placeholder"
  attr {
    key: "dtype"
    value {
      type: DT_FLOAT
    }
  }
  attr {
    key: "shape"
    value {
      shape {
        unknown_rank: true
      }
    }
  }
}
node {
  name: "weights_placeholder"
  op: "Placeholder"
  attr {
    key: "dtype"
    value {
      type: DT_FLOAT
    }
  }
  attr {
    key: "shape"
    value {
      shape {
        unknown_rank: true
      }
    }
  }
}
node {
  name: "training_ph/input"
  op: "Const"
  attr {
    key: "dtype"
    value {
      type: DT_BOOL
    }
  }
  attr {
    key: "value"
    value {
      tensor {
        dtype: DT_BOOL
        tensor_shape {
        }
        bool_val: false
      }
    }
  }
}
node {
  name: "training_ph"
  op: "PlaceholderWithDefault"
  input: "training_ph/input"
  attr {
    key: "dtype"
    value {
      type: DT_BOOL
    }
  }
  attr {
    key: "shape"
    value {
      shape {
      }
    }
  }
}
node {
  name: "mean_squared_error"
  op: "Placeholder"
  attr {
    key: "dtype"
    value {
      type: DT_FLOAT
    }
  }
  attr {
    key: "shape"
    value {
      shape {
        unknown_rank: true
      }
    }
  }
}
node {
  name: "pearson_r"
  op: "Placeholder"
  attr {
    key: "dtype"
    value {
      type: DT_FLOAT
    }
  }
  attr {
    key: "shape"
    value {
      shape {
        unknown_rank: true
      }
    }
  }
}
node {
  name: "r2"
  op: "Placeholder"
  attr {
    key: "dtype"
    value {
      type: DT_FLOAT
    }
  }
  attr {
    key: "shape"
    value {
      shape {
        unknown_rank: true
      }
    }
  }
}
node {
  name: "r_singles"
  op: "Placeholder"
  attr {
    key: "dtype"
    value {
      type: DT_FLOAT
    }
  }
  attr {
    key: "shape"
    value {
      shape {
        unknown_rank: true
      }
    }
  }
}
node {
  name: "r_multi"
  op: "Placeholder"
  attr {
    key: "dtype"
    value {
      type: DT_FLOAT
    }
  }
  attr {
    key: "shape"
    value {
      shape {
        unknown_rank: true
      }
    }
  }
}
node {
  name: "r_ep"
  op: "Placeholder"
  attr {
    key: "dtype"
    value {
      type: DT_FLOAT
    }
  }
  attr {
    key: "shape"
    value {
      shape {
        unknown_rank: true
      }
    }
  }
}
node {
  name: "explained_variance"
  op: "Placeholder"
  attr {
    key: "dtype"
    value {
      type: DT_FLOAT
    }
  }
  attr {
    key: "shape"
    value {
      shape {
        unknown_rank: true
      }
    }
  }
}
node {
  name: "validation_loss_placeholder"
  op: "Placeholder"
  attr {
    key: "dtype"
    value {
      type: DT_FLOAT
    }
  }
  attr {
    key: "shape"
    value {
      shape {
        unknown_rank: true
      }
    }
  }
}
node {
  name: "training_loss_placeholder"
  op: "Placeholder"
  attr {
    key: "dtype"
    value {
      type: DT_FLOAT
    }
  }
  attr {
    key: "shape"
    value {
      shape {
        unknown_rank: true
      }
    }
  }
}
node {
  name: "validation_loss/tags"
  op: "Const"
  attr {
    key: "dtype"
    value {
      type: DT_STRING
    }
  }
  attr {
    key: "value"
    value {
      tensor {
        dtype: DT_STRING
        tensor_shape {
        }
        string_val: "validation_loss"
      }
    }
  }
}
node {
  name: "validation_loss"
  op: "ScalarSummary"
  input: "validation_loss/tags"
  input: "validation_loss_placeholder"
  attr {
    key: "T"
    value {
      type: DT_FLOAT
    }
  }
}
node {
  name: "training_loss/tags"
  op: "Const"
  attr {
    key: "dtype"
    value {
      type: DT_STRING
    }
  }
  attr {
    key: "value"
    value {
      tensor {
        dtype: DT_STRING
        tensor_shape {
        }
        string_val: "training_loss"
      }
    }
  }
}
node {
  name: "training_loss"
  op: "ScalarSummary"
  input: "training_loss/tags"
  input: "training_loss_placeholder"
  attr {
    key: "T"
    value {
      type: DT_FLOAT
    }
  }
}
node {
  name: "random_uniform/shape"
  op: "Const"
  attr {
    key: "dtype"
    value {
      type: DT_INT32
    }
  }
  attr {
    key: "value"
    value {
      tensor {
        dtype: DT_INT32
        tensor_shape {
          dim {
            size: 2
          }
        }
        tensor_content: "(\000\000\000\200\000\000\000"
      }
    }
  }
}
node {
  name: "random_uniform/min"
  op: "Const"
  attr {
    key: "dtype"
    value {
      type: DT_FLOAT
    }
  }
  attr {
    key: "value"
    value {
      tensor {
        dtype: DT_FLOAT
        tensor_shape {
        }
        float_val: -0.013975424692034721
      }
    }
  }
}
node {
  name: "random_uniform/max"
  op: "Const"
  attr {
    key: "dtype"
    value {
      type: DT_FLOAT
    }
  }
  attr {
    key: "value"
    value {
      tensor {
        dtype: DT_FLOAT
        tensor_shape {
        }
        float_val: 0.013975424692034721
      }
    }
  }
}
node {
  name: "random_uniform/RandomUniform"
  op: "RandomUniform"
  input: "random_uniform/shape"
  attr {
    key: "T"
    value {
      type: DT_INT32
    }
  }
  attr {
    key: "dtype"
    value {
      type: DT_FLOAT
    }
  }
  attr {
    key: "seed"
    value {
      i: 7
    }
  }
  attr {
    key: "seed2"
    value {
      i: 23
    }
  }
}
node {
  name: "random_uniform/sub"
  op: "Sub"
  input: "random_uniform/max"
  input: "random_uniform/min"
  attr {
    key: "T"
    value {
      type: DT_FLOAT
    }
  }
}
node {
  name: "random_uniform/mul"
  op: "Mul"
  input: "random_uniform/RandomUniform"
  input: "random_uniform/sub"
  attr {
    key: "T"
    value {
      type: DT_FLOAT
    }
  }
}
node {
  name: "random_uniform"
  op: "Add"
  input: "random_uniform/mul"
  input: "random_uniform/min"
  attr {
    key: "T"
    value {
      type: DT_FLOAT
    }
  }
}
node {
  name: "Wc"
  op: "VariableV2"
  attr {
    key: "container"
    value {
      s: ""
    }
  }
  attr {
    key: "dtype"
    value {
      type: DT_FLOAT
    }
  }
  attr {
    key: "shape"
    value {
      shape {
        dim {
          size: 40
        }
        dim {
          size: 128
        }
      }
    }
  }
  attr {
    key: "shared_name"
    value {
      s: ""
    }
  }
}
node {
  name: "Wc/Assign"
  op: "Assign"
  input: "Wc"
  input: "random_uniform"
  attr {
    key: "T"
    value {
      type: DT_FLOAT
    }
  }
  attr {
    key: "_class"
    value {
      list {
        s: "loc:@Wc"
      }
    }
  }
  attr {
    key: "use_locking"
    value {
      b: true
    }
  }
  attr {
    key: "validate_shape"
    value {
      b: true
    }
  }
}
node {
  name: "Wc/read"
  op: "Identity"
  input: "Wc"
  attr {
    key: "T"
    value {
      type: DT_FLOAT
    }
  }
  attr {
    key: "_class"
    value {
      list {
        s: "loc:@Wc"
      }
    }
  }
}
node {
  name: "random_uniform_1/shape"
  op: "Const"
  attr {
    key: "dtype"
    value {
      type: DT_INT32
    }
  }
  attr {
    key: "value"
    value {
      tensor {
        dtype: DT_INT32
        tensor_shape {
          dim {
            size: 2
          }
        }
        tensor_content: "(\000\000\000\200\000\000\000"
      }
    }
  }
}
node {
  name: "random_uniform_1/min"
  op: "Const"
  attr {
    key: "dtype"
    value {
      type: DT_FLOAT
    }
  }
  attr {
    key: "value"
    value {
      tensor {
        dtype: DT_FLOAT
        tensor_shape {
        }
        float_val: -0.013975424692034721
      }
    }
  }
}
node {
  name: "random_uniform_1/max"
  op: "Const"
  attr {
    key: "dtype"
    value {
      type: DT_FLOAT
    }
  }
  attr {
    key: "value"
    value {
      tensor {
        dtype: DT_FLOAT
        tensor_shape {
        }
        float_val: 0.013975424692034721
      }
    }
  }
}
node {
  name: "random_uniform_1/RandomUniform"
  op: "RandomUniform"
  input: "random_uniform_1/shape"
  attr {
    key: "T"
    value {
      type: DT_INT32
    }
  }
  attr {
    key: "dtype"
    value {
      type: DT_FLOAT
    }
  }
  attr {
    key: "seed"
    value {
      i: 7
    }
  }
  attr {
    key: "seed2"
    value {
      i: 33
    }
  }
}
node {
  name: "random_uniform_1/sub"
  op: "Sub"
  input: "random_uniform_1/max"
  input: "random_uniform_1/min"
  attr {
    key: "T"
    value {
      type: DT_FLOAT
    }
  }
}
node {
  name: "random_uniform_1/mul"
  op: "Mul"
  input: "random_uniform_1/RandomUniform"
  input: "random_uniform_1/sub"
  attr {
    key: "T"
    value {
      type: DT_FLOAT
    }
  }
}
node {
  name: "random_uniform_1"
  op: "Add"
  input: "random_uniform_1/mul"
  input: "random_uniform_1/min"
  attr {
    key: "T"
    value {
      type: DT_FLOAT
    }
  }
}
node {
  name: "Wn"
  op: "VariableV2"
  attr {
    key: "container"
    value {
      s: ""
    }
  }
  attr {
    key: "dtype"
    value {
      type: DT_FLOAT
    }
  }
  attr {
    key: "shape"
    value {
      shape {
        dim {
          size: 40
        }
        dim {
          size: 128
        }
      }
    }
  }
  attr {
    key: "shared_name"
    value {
      s: ""
    }
  }
}
node {
  name: "Wn/Assign"
  op: "Assign"
  input: "Wn"
  input: "random_uniform_1"
  attr {
    key: "T"
    value {
      type: DT_FLOAT
    }
  }
  attr {
    key: "_class"
    value {
      list {
        s: "loc:@Wn"
      }
    }
  }
  attr {
    key: "use_locking"
    value {
      b: true
    }
  }
  attr {
    key: "validate_shape"
    value {
      b: true
    }
  }
}
node {
  name: "Wn/read"
  op: "Identity"
  input: "Wn"
  attr {
    key: "T"
    value {
      type: DT_FLOAT
    }
  }
  attr {
    key: "_class"
    value {
      list {
        s: "loc:@Wn"
      }
    }
  }
}
node {
  name: "zeros"
  op: "Const"
  attr {
    key: "dtype"
    value {
      type: DT_FLOAT
    }
  }
  attr {
    key: "value"
    value {
      tensor {
        dtype: DT_FLOAT
        tensor_shape {
          dim {
            size: 128
          }
        }
        float_val: 0.0
      }
    }
  }
}
node {
  name: "b"
  op: "VariableV2"
  attr {
    key: "container"
    value {
      s: ""
    }
  }
  attr {
    key: "dtype"
    value {
      type: DT_FLOAT
    }
  }
  attr {
    key: "shape"
    value {
      shape {
        dim {
          size: 128
        }
      }
    }
  }
  attr {
    key: "shared_name"
    value {
      s: ""
    }
  }
}
node {
  name: "b/Assign"
  op: "Assign"
  input: "b"
  input: "zeros"
  attr {
    key: "T"
    value {
      type: DT_FLOAT
    }
  }
  attr {
    key: "_class"
    value {
      list {
        s: "loc:@b"
      }
    }
  }
  attr {
    key: "use_locking"
    value {
      b: true
    }
  }
  attr {
    key: "validate_shape"
    value {
      b: true
    }
  }
}
node {
  name: "b/read"
  op: "Identity"
  input: "b"
  attr {
    key: "T"
    value {
      type: DT_FLOAT
    }
  }
  attr {
    key: "_class"
    value {
      list {
        s: "loc:@b"
      }
    }
  }
}
node {
  name: "Reshape/shape"
  op: "Const"
  attr {
    key: "dtype"
    value {
      type: DT_INT32
    }
  }
  attr {
    key: "value"
    value {
      tensor {
        dtype: DT_INT32
        tensor_shape {
          dim {
            size: 2
          }
        }
        tensor_content: "\377\377\377\377(\000\000\000"
      }
    }
  }
}
node {
  name: "Reshape"
  op: "Reshape"
  input: "raw_seqs_placeholder"
  input: "Reshape/shape"
  attr {
    key: "T"
    value {
      type: DT_FLOAT
    }
  }
  attr {
    key: "Tshape"
    value {
      type: DT_INT32
    }
  }
}
node {
  name: "MatMul"
  op: "MatMul"
  input: "Reshape"
  input: "Wc/read"
  attr {
    key: "T"
    value {
      type: DT_FLOAT
    }
  }
  attr {
    key: "transpose_a"
    value {
      b: false
    }
  }
  attr {
    key: "transpose_b"
    value {
      b: false
    }
  }
}
node {
  name: "Reshape_1/shape"
  op: "Const"
  attr {
    key: "dtype"
    value {
      type: DT_INT32
    }
  }
  attr {
    key: "value"
    value {
      tensor {
        dtype: DT_INT32
        tensor_shape {
          dim {
            size: 3
          }
        }
        tensor_content: "\377\377\377\3778\000\000\000\200\000\000\000"
      }
    }
  }
}
node {
  name: "Reshape_1"
  op: "Reshape"
  input: "MatMul"
  input: "Reshape_1/shape"
  attr {
    key: "T"
    value {
      type: DT_FLOAT
    }
  }
  attr {
    key: "Tshape"
    value {
      type: DT_INT32
    }
  }
}
node {
  name: "Reshape_2/shape"
  op: "Const"
  attr {
    key: "dtype"
    value {
      type: DT_INT32
    }
  }
  attr {
    key: "value"
    value {
      tensor {
        dtype: DT_INT32
        tensor_shape {
          dim {
            size: 2
          }
        }
        tensor_content: "\377\377\377\377(\000\000\000"
      }
    }
  }
}
node {
  name: "Reshape_2"
  op: "Reshape"
  input: "raw_seqs_placeholder"
  input: "Reshape_2/shape"
  attr {
    key: "T"
    value {
      type: DT_FLOAT
    }
  }
  attr {
    key: "Tshape"
    value {
      type: DT_INT32
    }
  }
}
node {
  name: "MatMul_1"
  op: "MatMul"
  input: "Reshape_2"
  input: "Wn/read"
  attr {
    key: "T"
    value {
      type: DT_FLOAT
    }
  }
  attr {
    key: "transpose_a"
    value {
      b: false
    }
  }
  attr {
    key: "transpose_b"
    value {
      b: false
    }
  }
}
node {
  name: "Reshape_3/shape"
  op: "Const"
  attr {
    key: "dtype"
    value {
      type: DT_INT32
    }
  }
  attr {
    key: "value"
    value {
      tensor {
        dtype: DT_INT32
        tensor_shape {
          dim {
            size: 3
          }
        }
        tensor_content: "\377\377\377\3778\000\000\000\200\000\000\000"
      }
    }
  }
}
node {
  name: "Reshape_3"
  op: "Reshape"
  input: "MatMul_1"
  input: "Reshape_3/shape"
  attr {
    key: "T"
    value {
      type: DT_FLOAT
    }
  }
  attr {
    key: "Tshape"
    value {
      type: DT_INT32
    }
  }
}
node {
  name: "strided_slice/stack"
  op: "Const"
  attr {
    key: "dtype"
    value {
      type: DT_INT32
    }
  }
  attr {
    key: "value"
    value {
      tensor {
        dtype: DT_INT32
        tensor_shape {
          dim {
            size: 1
          }
        }
        int_val: 0
      }
    }
  }
}
node {
  name: "strided_slice/stack_1"
  op: "Const"
  attr {
    key: "dtype"
    value {
      type: DT_INT32
    }
  }
  attr {
    key: "value"
    value {
      tensor {
        dtype: DT_INT32
        tensor_shape {
          dim {
            size: 1
          }
        }
        int_val: 0
      }
    }
  }
}
node {
  name: "strided_slice/stack_2"
  op: "Const"
  attr {
    key: "dtype"
    value {
      type: DT_INT32
    }
  }
  attr {
    key: "value"
    value {
      tensor {
        dtype: DT_INT32
        tensor_shape {
          dim {
            size: 1
          }
        }
        int_val: 1
      }
    }
  }
}
node {
  name: "strided_slice"
  op: "StridedSlice"
  input: "Const"
  input: "strided_slice/stack"
  input: "strided_slice/stack_1"
  input: "strided_slice/stack_2"
  attr {
    key: "Index"
    value {
      type: DT_INT32
    }
  }
  attr {
    key: "T"
    value {
      type: DT_FLOAT
    }
  }
  attr {
    key: "begin_mask"
    value {
      i: 0
    }
  }
  attr {
    key: "ellipsis_mask"
    value {
      i: 0
    }
  }
  attr {
    key: "end_mask"
    value {
      i: 0
    }
  }
  attr {
    key: "new_axis_mask"
    value {
      i: 1
    }
  }
  attr {
    key: "shrink_axis_mask"
    value {
      i: 0
    }
  }
}
node {
  name: "Shape"
  op: "Shape"
  input: "raw_seqs_placeholder"
  attr {
    key: "T"
    value {
      type: DT_FLOAT
    }
  }
  attr {
    key: "out_type"
    value {
      type: DT_INT32
    }
  }
}
node {
  name: "strided_slice_1/stack"
  op: "Const"
  attr {
    key: "dtype"
    value {
      type: DT_INT32
    }
  }
  attr {
    key: "value"
    value {
      tensor {
        dtype: DT_INT32
        tensor_shape {
          dim {
            size: 1
          }
        }
        int_val: 0
      }
    }
  }
}
node {
  name: "strided_slice_1/stack_1"
  op: "Const"
  attr {
    key: "dtype"
    value {
      type: DT_INT32
    }
  }
  attr {
    key: "value"
    value {
      tensor {
        dtype: DT_INT32
        tensor_shape {
          dim {
            size: 1
          }
        }
        int_val: 1
      }
    }
  }
}
node {
  name: "strided_slice_1/stack_2"
  op: "Const"
  attr {
    key: "dtype"
    value {
      type: DT_INT32
    }
  }
  attr {
    key: "value"
    value {
      tensor {
        dtype: DT_INT32
        tensor_shape {
          dim {
            size: 1
          }
        }
        int_val: 1
      }
    }
  }
}
node {
  name: "strided_slice_1"
  op: "StridedSlice"
  input: "Shape"
  input: "strided_slice_1/stack"
  input: "strided_slice_1/stack_1"
  input: "strided_slice_1/stack_2"
  attr {
    key: "Index"
    value {
      type: DT_INT32
    }
  }
  attr {
    key: "T"
    value {
      type: DT_INT32
    }
  }
  attr {
    key: "begin_mask"
    value {
      i: 0
    }
  }
  attr {
    key: "ellipsis_mask"
    value {
      i: 0
    }
  }
  attr {
    key: "end_mask"
    value {
      i: 0
    }
  }
  attr {
    key: "new_axis_mask"
    value {
      i: 0
    }
  }
  attr {
    key: "shrink_axis_mask"
    value {
      i: 1
    }
  }
}
node {
  name: "Tile/multiples/1"
  op: "Const"
  attr {
    key: "dtype"
    value {
      type: DT_INT32
    }
  }
  attr {
    key: "value"
    value {
      tensor {
        dtype: DT_INT32
        tensor_shape {
        }
        int_val: 1
      }
    }
  }
}
node {
  name: "Tile/multiples/2"
  op: "Const"
  attr {
    key: "dtype"
    value {
      type: DT_INT32
    }
  }
  attr {
    key: "value"
    value {
      tensor {
        dtype: DT_INT32
        tensor_shape {
        }
        int_val: 1
      }
    }
  }
}
node {
  name: "Tile/multiples"
  op: "Pack"
  input: "strided_slice_1"
  input: "Tile/multiples/1"
  input: "Tile/multiples/2"
  attr {
    key: "N"
    value {
      i: 3
    }
  }
  attr {
    key: "T"
    value {
      type: DT_INT32
    }
  }
  attr {
    key: "axis"
    value {
      i: 0
    }
  }
}
node {
  name: "Tile"
  op: "Tile"
  input: "strided_slice"
  input: "Tile/multiples"
  attr {
    key: "T"
    value {
      type: DT_FLOAT
    }
  }
  attr {
    key: "Tmultiples"
    value {
      type: DT_INT32
    }
  }
}
node {
  name: "MatMul_2"
  op: "BatchMatMulV2"
  input: "Tile"
  input: "Reshape_3"
  attr {
    key: "T"
    value {
      type: DT_FLOAT
    }
  }
  attr {
    key: "adj_x"
    value {
      b: false
    }
  }
  attr {
    key: "adj_y"
    value {
      b: false
    }
  }
}
node {
  name: "Const_2"
  op: "Const"
  attr {
    key: "dtype"
    value {
      type: DT_FLOAT
    }
  }
  attr {
    key: "value"
    value {
      tensor {
        dtype: DT_FLOAT
        tensor_shape {
        }
        float_val: 1.0
      }
    }
  }
}
node {
  name: "Sum/reduction_indices"
  op: "Const"
  attr {
    key: "dtype"
    value {
      type: DT_INT32
    }
  }
  attr {
    key: "value"
    value {
      tensor {
        dtype: DT_INT32
        tensor_shape {
        }
        int_val: 1
      }
    }
  }
}
node {
  name: "Sum"
  op: "Sum"
  input: "Const"
  input: "Sum/reduction_indices"
  attr {
    key: "T"
    value {
      type: DT_FLOAT
    }
  }
  attr {
    key: "Tidx"
    value {
      type: DT_INT32
    }
  }
  attr {
    key: "keep_dims"
    value {
      b: false
    }
  }
}
node {
  name: "Maximum"
  op: "Maximum"
  input: "Const_2"
  input: "Sum"
  attr {
    key: "T"
    value {
      type: DT_FLOAT
    }
  }
}
node {
  name: "Reshape_4/shape"
  op: "Const"
  attr {
    key: "dtype"
    value {
      type: DT_INT32
    }
  }
  attr {
    key: "value"
    value {
      tensor {
        dtype: DT_INT32
        tensor_shape {
          dim {
            size: 2
          }
        }
        tensor_content: "\377\377\377\377\001\000\000\000"
      }
    }
  }
}
node {
  name: "Reshape_4"
  op: "Reshape"
  input: "Maximum"
  input: "Reshape_4/shape"
  attr {
    key: "T"
    value {
      type: DT_FLOAT
    }
  }
  attr {
    key: "Tshape"
    value {
      type: DT_INT32
    }
  }
}
node {
  name: "truediv"
  op: "RealDiv"
  input: "MatMul_2"
  input: "Reshape_4"
  attr {
    key: "T"
    value {
      type: DT_FLOAT
    }
  }
}
node {
  name: "add"
  op: "Add"
  input: "Reshape_1"
  input: "truediv"
  attr {
    key: "T"
    value {
      type: DT_FLOAT
    }
  }
}
node {
  name: "add_1"
  op: "Add"
  input: "add"
  input: "b/read"
  attr {
    key: "T"
    value {
      type: DT_FLOAT
    }
  }
}
node {
  name: "LeakyRelu"
  op: "LeakyRelu"
  input: "add_1"
  attr {
    key: "T"
    value {
      type: DT_FLOAT
    }
  }
  attr {
    key: "alpha"
    value {
      f: 0.20000000298023224
    }
  }
}
node {
  name: "random_uniform_2/shape"
  op: "Const"
  attr {
    key: "dtype"
    value {
      type: DT_INT32
    }
  }
  attr {
    key: "value"
    value {
      tensor {
        dtype: DT_INT32
        tensor_shape {
          dim {
            size: 2
          }
        }
        tensor_content: "\200\000\000\000\200\000\000\000"
      }
    }
  }
}
node {
  name: "random_uniform_2/min"
  op: "Const"
  attr {
    key: "dtype"
    value {
      type: DT_FLOAT
    }
  }
  attr {
    key: "value"
    value {
      tensor {
        dtype: DT_FLOAT
        tensor_shape {
        }
        float_val: -0.0078125
      }
    }
  }
}
node {
  name: "random_uniform_2/max"
  op: "Const"
  attr {
    key: "dtype"
    value {
      type: DT_FLOAT
    }
  }
  attr {
    key: "value"
    value {
      tensor {
        dtype: DT_FLOAT
        tensor_shape {
        }
        float_val: 0.0078125
      }
    }
  }
}
node {
  name: "random_uniform_2/RandomUniform"
  op: "RandomUniform"
  input: "random_uniform_2/shape"
  attr {
    key: "T"
    value {
      type: DT_INT32
    }
  }
  attr {
    key: "dtype"
    value {
      type: DT_FLOAT
    }
  }
  attr {
    key: "seed"
    value {
      i: 7
    }
  }
  attr {
    key: "seed2"
    value {
      i: 81
    }
  }
}
node {
  name: "random_uniform_2/sub"
  op: "Sub"
  input: "random_uniform_2/max"
  input: "random_uniform_2/min"
  attr {
    key: "T"
    value {
      type: DT_FLOAT
    }
  }
}
node {
  name: "random_uniform_2/mul"
  op: "Mul"
  input: "random_uniform_2/RandomUniform"
  input: "random_uniform_2/sub"
  attr {
    key: "T"
    value {
      type: DT_FLOAT
    }
  }
}
node {
  name: "random_uniform_2"
  op: "Add"
  input: "random_uniform_2/mul"
  input: "random_uniform_2/min"
  attr {
    key: "T"
    value {
      type: DT_FLOAT
    }
  }
}
node {
  name: "Wc_1"
  op: "VariableV2"
  attr {
    key: "container"
    value {
      s: ""
    }
  }
  attr {
    key: "dtype"
    value {
      type: DT_FLOAT
    }
  }
  attr {
    key: "shape"
    value {
      shape {
        dim {
          size: 128
        }
        dim {
          size: 128
        }
      }
    }
  }
  attr {
    key: "shared_name"
    value {
      s: ""
    }
  }
}
node {
  name: "Wc_1/Assign"
  op: "Assign"
  input: "Wc_1"
  input: "random_uniform_2"
  attr {
    key: "T"
    value {
      type: DT_FLOAT
    }
  }
  attr {
    key: "_class"
    value {
      list {
        s: "loc:@Wc_1"
      }
    }
  }
  attr {
    key: "use_locking"
    value {
      b: true
    }
  }
  attr {
    key: "validate_shape"
    value {
      b: true
    }
  }
}
node {
  name: "Wc_1/read"
  op: "Identity"
  input: "Wc_1"
  attr {
    key: "T"
    value {
      type: DT_FLOAT
    }
  }
  attr {
    key: "_class"
    value {
      list {
        s: "loc:@Wc_1"
      }
    }
  }
}
node {
  name: "random_uniform_3/shape"
  op: "Const"
  attr {
    key: "dtype"
    value {
      type: DT_INT32
    }
  }
  attr {
    key: "value"
    value {
      tensor {
        dtype: DT_INT32
        tensor_shape {
          dim {
            size: 2
          }
        }
        tensor_content: "\200\000\000\000\200\000\000\000"
      }
    }
  }
}
node {
  name: "random_uniform_3/min"
  op: "Const"
  attr {
    key: "dtype"
    value {
      type: DT_FLOAT
    }
  }
  attr {
    key: "value"
    value {
      tensor {
        dtype: DT_FLOAT
        tensor_shape {
        }
        float_val: -0.0078125
      }
    }
  }
}
node {
  name: "random_uniform_3/max"
  op: "Const"
  attr {
    key: "dtype"
    value {
      type: DT_FLOAT
    }
  }
  attr {
    key: "value"
    value {
      tensor {
        dtype: DT_FLOAT
        tensor_shape {
        }
        float_val: 0.0078125
      }
    }
  }
}
node {
  name: "random_uniform_3/RandomUniform"
  op: "RandomUniform"
  input: "random_uniform_3/shape"
  attr {
    key: "T"
    value {
      type: DT_INT32
    }
  }
  attr {
    key: "dtype"
    value {
      type: DT_FLOAT
    }
  }
  attr {
    key: "seed"
    value {
      i: 7
    }
  }
  attr {
    key: "seed2"
    value {
      i: 91
    }
  }
}
node {
  name: "random_uniform_3/sub"
  op: "Sub"
  input: "random_uniform_3/max"
  input: "random_uniform_3/min"
  attr {
    key: "T"
    value {
      type: DT_FLOAT
    }
  }
}
node {
  name: "random_uniform_3/mul"
  op: "Mul"
  input: "random_uniform_3/RandomUniform"
  input: "random_uniform_3/sub"
  attr {
    key: "T"
    value {
      type: DT_FLOAT
    }
  }
}
node {
  name: "random_uniform_3"
  op: "Add"
  input: "random_uniform_3/mul"
  input: "random_uniform_3/min"
  attr {
    key: "T"
    value {
      type: DT_FLOAT
    }
  }
}
node {
  name: "Wn_1"
  op: "VariableV2"
  attr {
    key: "container"
    value {
      s: ""
    }
  }
  attr {
    key: "dtype"
    value {
      type: DT_FLOAT
    }
  }
  attr {
    key: "shape"
    value {
      shape {
        dim {
          size: 128
        }
        dim {
          size: 128
        }
      }
    }
  }
  attr {
    key: "shared_name"
    value {
      s: ""
    }
  }
}
node {
  name: "Wn_1/Assign"
  op: "Assign"
  input: "Wn_1"
  input: "random_uniform_3"
  attr {
    key: "T"
    value {
      type: DT_FLOAT
    }
  }
  attr {
    key: "_class"
    value {
      list {
        s: "loc:@Wn_1"
      }
    }
  }
  attr {
    key: "use_locking"
    value {
      b: true
    }
  }
  attr {
    key: "validate_shape"
    value {
      b: true
    }
  }
}
node {
  name: "Wn_1/read"
  op: "Identity"
  input: "Wn_1"
  attr {
    key: "T"
    value {
      type: DT_FLOAT
    }
  }
  attr {
    key: "_class"
    value {
      list {
        s: "loc:@Wn_1"
      }
    }
  }
}
node {
  name: "zeros_1"
  op: "Const"
  attr {
    key: "dtype"
    value {
      type: DT_FLOAT
    }
  }
  attr {
    key: "value"
    value {
      tensor {
        dtype: DT_FLOAT
        tensor_shape {
          dim {
            size: 128
          }
        }
        float_val: 0.0
      }
    }
  }
}
node {
  name: "b_1"
  op: "VariableV2"
  attr {
    key: "container"
    value {
      s: ""
    }
  }
  attr {
    key: "dtype"
    value {
      type: DT_FLOAT
    }
  }
  attr {
    key: "shape"
    value {
      shape {
        dim {
          size: 128
        }
      }
    }
  }
  attr {
    key: "shared_name"
    value {
      s: ""
    }
  }
}
node {
  name: "b_1/Assign"
  op: "Assign"
  input: "b_1"
  input: "zeros_1"
  attr {
    key: "T"
    value {
      type: DT_FLOAT
    }
  }
  attr {
    key: "_class"
    value {
      list {
        s: "loc:@b_1"
      }
    }
  }
  attr {
    key: "use_locking"
    value {
      b: true
    }
  }
  attr {
    key: "validate_shape"
    value {
      b: true
    }
  }
}
node {
  name: "b_1/read"
  op: "Identity"
  input: "b_1"
  attr {
    key: "T"
    value {
      type: DT_FLOAT
    }
  }
  attr {
    key: "_class"
    value {
      list {
        s: "loc:@b_1"
      }
    }
  }
}
node {
  name: "Reshape_5/shape"
  op: "Const"
  attr {
    key: "dtype"
    value {
      type: DT_INT32
    }
  }
  attr {
    key: "value"
    value {
      tensor {
        dtype: DT_INT32
        tensor_shape {
          dim {
            size: 2
          }
        }
        tensor_content: "\377\377\377\377\200\000\000\000"
      }
    }
  }
}
node {
  name: "Reshape_5"
  op: "Reshape"
  input: "LeakyRelu"
  input: "Reshape_5/shape"
  attr {
    key: "T"
    value {
      type: DT_FLOAT
    }
  }
  attr {
    key: "Tshape"
    value {
      type: DT_INT32
    }
  }
}
node {
  name: "MatMul_3"
  op: "MatMul"
  input: "Reshape_5"
  input: "Wc_1/read"
  attr {
    key: "T"
    value {
      type: DT_FLOAT
    }
  }
  attr {
    key: "transpose_a"
    value {
      b: false
    }
  }
  attr {
    key: "transpose_b"
    value {
      b: false
    }
  }
}
node {
  name: "Reshape_6/shape"
  op: "Const"
  attr {
    key: "dtype"
    value {
      type: DT_INT32
    }
  }
  attr {
    key: "value"
    value {
      tensor {
        dtype: DT_INT32
        tensor_shape {
          dim {
            size: 3
          }
        }
        tensor_content: "\377\377\377\3778\000\000\000\200\000\000\000"
      }
    }
  }
}
node {
  name: "Reshape_6"
  op: "Reshape"
  input: "MatMul_3"
  input: "Reshape_6/shape"
  attr {
    key: "T"
    value {
      type: DT_FLOAT
    }
  }
  attr {
    key: "Tshape"
    value {
      type: DT_INT32
    }
  }
}
node {
  name: "Reshape_7/shape"
  op: "Const"
  attr {
    key: "dtype"
    value {
      type: DT_INT32
    }
  }
  attr {
    key: "value"
    value {
      tensor {
        dtype: DT_INT32
        tensor_shape {
          dim {
            size: 2
          }
        }
        tensor_content: "\377\377\377\377\200\000\000\000"
      }
    }
  }
}
node {
  name: "Reshape_7"
  op: "Reshape"
  input: "LeakyRelu"
  input: "Reshape_7/shape"
  attr {
    key: "T"
    value {
      type: DT_FLOAT
    }
  }
  attr {
    key: "Tshape"
    value {
      type: DT_INT32
    }
  }
}
node {
  name: "MatMul_4"
  op: "MatMul"
  input: "Reshape_7"
  input: "Wn_1/read"
  attr {
    key: "T"
    value {
      type: DT_FLOAT
    }
  }
  attr {
    key: "transpose_a"
    value {
      b: false
    }
  }
  attr {
    key: "transpose_b"
    value {
      b: false
    }
  }
}
node {
  name: "Reshape_8/shape"
  op: "Const"
  attr {
    key: "dtype"
    value {
      type: DT_INT32
    }
  }
  attr {
    key: "value"
    value {
      tensor {
        dtype: DT_INT32
        tensor_shape {
          dim {
            size: 3
          }
        }
        tensor_content: "\377\377\377\3778\000\000\000\200\000\000\000"
      }
    }
  }
}
node {
  name: "Reshape_8"
  op: "Reshape"
  input: "MatMul_4"
  input: "Reshape_8/shape"
  attr {
    key: "T"
    value {
      type: DT_FLOAT
    }
  }
  attr {
    key: "Tshape"
    value {
      type: DT_INT32
    }
  }
}
node {
  name: "strided_slice_2/stack"
  op: "Const"
  attr {
    key: "dtype"
    value {
      type: DT_INT32
    }
  }
  attr {
    key: "value"
    value {
      tensor {
        dtype: DT_INT32
        tensor_shape {
          dim {
            size: 1
          }
        }
        int_val: 0
      }
    }
  }
}
node {
  name: "strided_slice_2/stack_1"
  op: "Const"
  attr {
    key: "dtype"
    value {
      type: DT_INT32
    }
  }
  attr {
    key: "value"
    value {
      tensor {
        dtype: DT_INT32
        tensor_shape {
          dim {
            size: 1
          }
        }
        int_val: 0
      }
    }
  }
}
node {
  name: "strided_slice_2/stack_2"
  op: "Const"
  attr {
    key: "dtype"
    value {
      type: DT_INT32
    }
  }
  attr {
    key: "value"
    value {
      tensor {
        dtype: DT_INT32
        tensor_shape {
          dim {
            size: 1
          }
        }
        int_val: 1
      }
    }
  }
}
node {
  name: "strided_slice_2"
  op: "StridedSlice"
  input: "Const"
  input: "strided_slice_2/stack"
  input: "strided_slice_2/stack_1"
  input: "strided_slice_2/stack_2"
  attr {
    key: "Index"
    value {
      type: DT_INT32
    }
  }
  attr {
    key: "T"
    value {
      type: DT_FLOAT
    }
  }
  attr {
    key: "begin_mask"
    value {
      i: 0
    }
  }
  attr {
    key: "ellipsis_mask"
    value {
      i: 0
    }
  }
  attr {
    key: "end_mask"
    value {
      i: 0
    }
  }
  attr {
    key: "new_axis_mask"
    value {
      i: 1
    }
  }
  attr {
    key: "shrink_axis_mask"
    value {
      i: 0
    }
  }
}
node {
  name: "Shape_1"
  op: "Shape"
  input: "LeakyRelu"
  attr {
    key: "T"
    value {
      type: DT_FLOAT
    }
  }
  attr {
    key: "out_type"
    value {
      type: DT_INT32
    }
  }
}
node {
  name: "strided_slice_3/stack"
  op: "Const"
  attr {
    key: "dtype"
    value {
      type: DT_INT32
    }
  }
  attr {
    key: "value"
    value {
      tensor {
        dtype: DT_INT32
        tensor_shape {
          dim {
            size: 1
          }
        }
        int_val: 0
      }
    }
  }
}
node {
  name: "strided_slice_3/stack_1"
  op: "Const"
  attr {
    key: "dtype"
    value {
      type: DT_INT32
    }
  }
  attr {
    key: "value"
    value {
      tensor {
        dtype: DT_INT32
        tensor_shape {
          dim {
            size: 1
          }
        }
        int_val: 1
      }
    }
  }
}
node {
  name: "strided_slice_3/stack_2"
  op: "Const"
  attr {
    key: "dtype"
    value {
      type: DT_INT32
    }
  }
  attr {
    key: "value"
    value {
      tensor {
        dtype: DT_INT32
        tensor_shape {
          dim {
            size: 1
          }
        }
        int_val: 1
      }
    }
  }
}
node {
  name: "strided_slice_3"
  op: "StridedSlice"
  input: "Shape_1"
  input: "strided_slice_3/stack"
  input: "strided_slice_3/stack_1"
  input: "strided_slice_3/stack_2"
  attr {
    key: "Index"
    value {
      type: DT_INT32
    }
  }
  attr {
    key: "T"
    value {
      type: DT_INT32
    }
  }
  attr {
    key: "begin_mask"
    value {
      i: 0
    }
  }
  attr {
    key: "ellipsis_mask"
    value {
      i: 0
    }
  }
  attr {
    key: "end_mask"
    value {
      i: 0
    }
  }
  attr {
    key: "new_axis_mask"
    value {
      i: 0
    }
  }
  attr {
    key: "shrink_axis_mask"
    value {
      i: 1
    }
  }
}
node {
  name: "Tile_1/multiples/1"
  op: "Const"
  attr {
    key: "dtype"
    value {
      type: DT_INT32
    }
  }
  attr {
    key: "value"
    value {
      tensor {
        dtype: DT_INT32
        tensor_shape {
        }
        int_val: 1
      }
    }
  }
}
node {
  name: "Tile_1/multiples/2"
  op: "Const"
  attr {
    key: "dtype"
    value {
      type: DT_INT32
    }
  }
  attr {
    key: "value"
    value {
      tensor {
        dtype: DT_INT32
        tensor_shape {
        }
        int_val: 1
      }
    }
  }
}
node {
  name: "Tile_1/multiples"
  op: "Pack"
  input: "strided_slice_3"
  input: "Tile_1/multiples/1"
  input: "Tile_1/multiples/2"
  attr {
    key: "N"
    value {
      i: 3
    }
  }
  attr {
    key: "T"
    value {
      type: DT_INT32
    }
  }
  attr {
    key: "axis"
    value {
      i: 0
    }
  }
}
node {
  name: "Tile_1"
  op: "Tile"
  input: "strided_slice_2"
  input: "Tile_1/multiples"
  attr {
    key: "T"
    value {
      type: DT_FLOAT
    }
  }
  attr {
    key: "Tmultiples"
    value {
      type: DT_INT32
    }
  }
}
node {
  name: "MatMul_5"
  op: "BatchMatMulV2"
  input: "Tile_1"
  input: "Reshape_8"
  attr {
    key: "T"
    value {
      type: DT_FLOAT
    }
  }
  attr {
    key: "adj_x"
    value {
      b: false
    }
  }
  attr {
    key: "adj_y"
    value {
      b: false
    }
  }
}
node {
  name: "Const_3"
  op: "Const"
  attr {
    key: "dtype"
    value {
      type: DT_FLOAT
    }
  }
  attr {
    key: "value"
    value {
      tensor {
        dtype: DT_FLOAT
        tensor_shape {
        }
        float_val: 1.0
      }
    }
  }
}
node {
  name: "Sum_1/reduction_indices"
  op: "Const"
  attr {
    key: "dtype"
    value {
      type: DT_INT32
    }
  }
  attr {
    key: "value"
    value {
      tensor {
        dtype: DT_INT32
        tensor_shape {
        }
        int_val: 1
      }
    }
  }
}
node {
  name: "Sum_1"
  op: "Sum"
  input: "Const"
  input: "Sum_1/reduction_indices"
  attr {
    key: "T"
    value {
      type: DT_FLOAT
    }
  }
  attr {
    key: "Tidx"
    value {
      type: DT_INT32
    }
  }
  attr {
    key: "keep_dims"
    value {
      b: false
    }
  }
}
node {
  name: "Maximum_1"
  op: "Maximum"
  input: "Const_3"
  input: "Sum_1"
  attr {
    key: "T"
    value {
      type: DT_FLOAT
    }
  }
}
node {
  name: "Reshape_9/shape"
  op: "Const"
  attr {
    key: "dtype"
    value {
      type: DT_INT32
    }
  }
  attr {
    key: "value"
    value {
      tensor {
        dtype: DT_INT32
        tensor_shape {
          dim {
            size: 2
          }
        }
        tensor_content: "\377\377\377\377\001\000\000\000"
      }
    }
  }
}
node {
  name: "Reshape_9"
  op: "Reshape"
  input: "Maximum_1"
  input: "Reshape_9/shape"
  attr {
    key: "T"
    value {
      type: DT_FLOAT
    }
  }
  attr {
    key: "Tshape"
    value {
      type: DT_INT32
    }
  }
}
node {
  name: "truediv_1"
  op: "RealDiv"
  input: "MatMul_5"
  input: "Reshape_9"
  attr {
    key: "T"
    value {
      type: DT_FLOAT
    }
  }
}
node {
  name: "add_2"
  op: "Add"
  input: "Reshape_6"
  input: "truediv_1"
  attr {
    key: "T"
    value {
      type: DT_FLOAT
    }
  }
}
node {
  name: "add_3"
  op: "Add"
  input: "add_2"
  input: "b_1/read"
  attr {
    key: "T"
    value {
      type: DT_FLOAT
    }
  }
}
node {
  name: "LeakyRelu_1"
  op: "LeakyRelu"
  input: "add_3"
  attr {
    key: "T"
    value {
      type: DT_FLOAT
    }
  }
  attr {
    key: "alpha"
    value {
      f: 0.20000000298023224
    }
  }
}
node {
  name: "random_uniform_4/shape"
  op: "Const"
  attr {
    key: "dtype"
    value {
      type: DT_INT32
    }
  }
  attr {
    key: "value"
    value {
      tensor {
        dtype: DT_INT32
        tensor_shape {
          dim {
            size: 2
          }
        }
        tensor_content: "\200\000\000\000\200\000\000\000"
      }
    }
  }
}
node {
  name: "random_uniform_4/min"
  op: "Const"
  attr {
    key: "dtype"
    value {
      type: DT_FLOAT
    }
  }
  attr {
    key: "value"
    value {
      tensor {
        dtype: DT_FLOAT
        tensor_shape {
        }
        float_val: -0.0078125
      }
    }
  }
}
node {
  name: "random_uniform_4/max"
  op: "Const"
  attr {
    key: "dtype"
    value {
      type: DT_FLOAT
    }
  }
  attr {
    key: "value"
    value {
      tensor {
        dtype: DT_FLOAT
        tensor_shape {
        }
        float_val: 0.0078125
      }
    }
  }
}
node {
  name: "random_uniform_4/RandomUniform"
  op: "RandomUniform"
  input: "random_uniform_4/shape"
  attr {
    key: "T"
    value {
      type: DT_INT32
    }
  }
  attr {
    key: "dtype"
    value {
      type: DT_FLOAT
    }
  }
  attr {
    key: "seed"
    value {
      i: 7
    }
  }
  attr {
    key: "seed2"
    value {
      i: 139
    }
  }
}
node {
  name: "random_uniform_4/sub"
  op: "Sub"
  input: "random_uniform_4/max"
  input: "random_uniform_4/min"
  attr {
    key: "T"
    value {
      type: DT_FLOAT
    }
  }
}
node {
  name: "random_uniform_4/mul"
  op: "Mul"
  input: "random_uniform_4/RandomUniform"
  input: "random_uniform_4/sub"
  attr {
    key: "T"
    value {
      type: DT_FLOAT
    }
  }
}
node {
  name: "random_uniform_4"
  op: "Add"
  input: "random_uniform_4/mul"
  input: "random_uniform_4/min"
  attr {
    key: "T"
    value {
      type: DT_FLOAT
    }
  }
}
node {
  name: "Wc_2"
  op: "VariableV2"
  attr {
    key: "container"
    value {
      s: ""
    }
  }
  attr {
    key: "dtype"
    value {
      type: DT_FLOAT
    }
  }
  attr {
    key: "shape"
    value {
      shape {
        dim {
          size: 128
        }
        dim {
          size: 128
        }
      }
    }
  }
  attr {
    key: "shared_name"
    value {
      s: ""
    }
  }
}
node {
  name: "Wc_2/Assign"
  op: "Assign"
  input: "Wc_2"
  input: "random_uniform_4"
  attr {
    key: "T"
    value {
      type: DT_FLOAT
    }
  }
  attr {
    key: "_class"
    value {
      list {
        s: "loc:@Wc_2"
      }
    }
  }
  attr {
    key: "use_locking"
    value {
      b: true
    }
  }
  attr {
    key: "validate_shape"
    value {
      b: true
    }
  }
}
node {
  name: "Wc_2/read"
  op: "Identity"
  input: "Wc_2"
  attr {
    key: "T"
    value {
      type: DT_FLOAT
    }
  }
  attr {
    key: "_class"
    value {
      list {
        s: "loc:@Wc_2"
      }
    }
  }
}
node {
  name: "random_uniform_5/shape"
  op: "Const"
  attr {
    key: "dtype"
    value {
      type: DT_INT32
    }
  }
  attr {
    key: "value"
    value {
      tensor {
        dtype: DT_INT32
        tensor_shape {
          dim {
            size: 2
          }
        }
        tensor_content: "\200\000\000\000\200\000\000\000"
      }
    }
  }
}
node {
  name: "random_uniform_5/min"
  op: "Const"
  attr {
    key: "dtype"
    value {
      type: DT_FLOAT
    }
  }
  attr {
    key: "value"
    value {
      tensor {
        dtype: DT_FLOAT
        tensor_shape {
        }
        float_val: -0.0078125
      }
    }
  }
}
node {
  name: "random_uniform_5/max"
  op: "Const"
  attr {
    key: "dtype"
    value {
      type: DT_FLOAT
    }
  }
  attr {
    key: "value"
    value {
      tensor {
        dtype: DT_FLOAT
        tensor_shape {
        }
        float_val: 0.0078125
      }
    }
  }
}
node {
  name: "random_uniform_5/RandomUniform"
  op: "RandomUniform"
  input: "random_uniform_5/shape"
  attr {
    key: "T"
    value {
      type: DT_INT32
    }
  }
  attr {
    key: "dtype"
    value {
      type: DT_FLOAT
    }
  }
  attr {
    key: "seed"
    value {
      i: 7
    }
  }
  attr {
    key: "seed2"
    value {
      i: 149
    }
  }
}
node {
  name: "random_uniform_5/sub"
  op: "Sub"
  input: "random_uniform_5/max"
  input: "random_uniform_5/min"
  attr {
    key: "T"
    value {
      type: DT_FLOAT
    }
  }
}
node {
  name: "random_uniform_5/mul"
  op: "Mul"
  input: "random_uniform_5/RandomUniform"
  input: "random_uniform_5/sub"
  attr {
    key: "T"
    value {
      type: DT_FLOAT
    }
  }
}
node {
  name: "random_uniform_5"
  op: "Add"
  input: "random_uniform_5/mul"
  input: "random_uniform_5/min"
  attr {
    key: "T"
    value {
      type: DT_FLOAT
    }
  }
}
node {
  name: "Wn_2"
  op: "VariableV2"
  attr {
    key: "container"
    value {
      s: ""
    }
  }
  attr {
    key: "dtype"
    value {
      type: DT_FLOAT
    }
  }
  attr {
    key: "shape"
    value {
      shape {
        dim {
          size: 128
        }
        dim {
          size: 128
        }
      }
    }
  }
  attr {
    key: "shared_name"
    value {
      s: ""
    }
  }
}
node {
  name: "Wn_2/Assign"
  op: "Assign"
  input: "Wn_2"
  input: "random_uniform_5"
  attr {
    key: "T"
    value {
      type: DT_FLOAT
    }
  }
  attr {
    key: "_class"
    value {
      list {
        s: "loc:@Wn_2"
      }
    }
  }
  attr {
    key: "use_locking"
    value {
      b: true
    }
  }
  attr {
    key: "validate_shape"
    value {
      b: true
    }
  }
}
node {
  name: "Wn_2/read"
  op: "Identity"
  input: "Wn_2"
  attr {
    key: "T"
    value {
      type: DT_FLOAT
    }
  }
  attr {
    key: "_class"
    value {
      list {
        s: "loc:@Wn_2"
      }
    }
  }
}
node {
  name: "zeros_2"
  op: "Const"
  attr {
    key: "dtype"
    value {
      type: DT_FLOAT
    }
  }
  attr {
    key: "value"
    value {
      tensor {
        dtype: DT_FLOAT
        tensor_shape {
          dim {
            size: 128
          }
        }
        float_val: 0.0
      }
    }
  }
}
node {
  name: "b_2"
  op: "VariableV2"
  attr {
    key: "container"
    value {
      s: ""
    }
  }
  attr {
    key: "dtype"
    value {
      type: DT_FLOAT
    }
  }
  attr {
    key: "shape"
    value {
      shape {
        dim {
          size: 128
        }
      }
    }
  }
  attr {
    key: "shared_name"
    value {
      s: ""
    }
  }
}
node {
  name: "b_2/Assign"
  op: "Assign"
  input: "b_2"
  input: "zeros_2"
  attr {
    key: "T"
    value {
      type: DT_FLOAT
    }
  }
  attr {
    key: "_class"
    value {
      list {
        s: "loc:@b_2"
      }
    }
  }
  attr {
    key: "use_locking"
    value {
      b: true
    }
  }
  attr {
    key: "validate_shape"
    value {
      b: true
    }
  }
}
node {
  name: "b_2/read"
  op: "Identity"
  input: "b_2"
  attr {
    key: "T"
    value {
      type: DT_FLOAT
    }
  }
  attr {
    key: "_class"
    value {
      list {
        s: "loc:@b_2"
      }
    }
  }
}
node {
  name: "Reshape_10/shape"
  op: "Const"
  attr {
    key: "dtype"
    value {
      type: DT_INT32
    }
  }
  attr {
    key: "value"
    value {
      tensor {
        dtype: DT_INT32
        tensor_shape {
          dim {
            size: 2
          }
        }
        tensor_content: "\377\377\377\377\200\000\000\000"
      }
    }
  }
}
node {
  name: "Reshape_10"
  op: "Reshape"
  input: "LeakyRelu_1"
  input: "Reshape_10/shape"
  attr {
    key: "T"
    value {
      type: DT_FLOAT
    }
  }
  attr {
    key: "Tshape"
    value {
      type: DT_INT32
    }
  }
}
node {
  name: "MatMul_6"
  op: "MatMul"
  input: "Reshape_10"
  input: "Wc_2/read"
  attr {
    key: "T"
    value {
      type: DT_FLOAT
    }
  }
  attr {
    key: "transpose_a"
    value {
      b: false
    }
  }
  attr {
    key: "transpose_b"
    value {
      b: false
    }
  }
}
node {
  name: "Reshape_11/shape"
  op: "Const"
  attr {
    key: "dtype"
    value {
      type: DT_INT32
    }
  }
  attr {
    key: "value"
    value {
      tensor {
        dtype: DT_INT32
        tensor_shape {
          dim {
            size: 3
          }
        }
        tensor_content: "\377\377\377\3778\000\000\000\200\000\000\000"
      }
    }
  }
}
node {
  name: "Reshape_11"
  op: "Reshape"
  input: "MatMul_6"
  input: "Reshape_11/shape"
  attr {
    key: "T"
    value {
      type: DT_FLOAT
    }
  }
  attr {
    key: "Tshape"
    value {
      type: DT_INT32
    }
  }
}
node {
  name: "Reshape_12/shape"
  op: "Const"
  attr {
    key: "dtype"
    value {
      type: DT_INT32
    }
  }
  attr {
    key: "value"
    value {
      tensor {
        dtype: DT_INT32
        tensor_shape {
          dim {
            size: 2
          }
        }
        tensor_content: "\377\377\377\377\200\000\000\000"
      }
    }
  }
}
node {
  name: "Reshape_12"
  op: "Reshape"
  input: "LeakyRelu_1"
  input: "Reshape_12/shape"
  attr {
    key: "T"
    value {
      type: DT_FLOAT
    }
  }
  attr {
    key: "Tshape"
    value {
      type: DT_INT32
    }
  }
}
node {
  name: "MatMul_7"
  op: "MatMul"
  input: "Reshape_12"
  input: "Wn_2/read"
  attr {
    key: "T"
    value {
      type: DT_FLOAT
    }
  }
  attr {
    key: "transpose_a"
    value {
      b: false
    }
  }
  attr {
    key: "transpose_b"
    value {
      b: false
    }
  }
}
node {
  name: "Reshape_13/shape"
  op: "Const"
  attr {
    key: "dtype"
    value {
      type: DT_INT32
    }
  }
  attr {
    key: "value"
    value {
      tensor {
        dtype: DT_INT32
        tensor_shape {
          dim {
            size: 3
          }
        }
        tensor_content: "\377\377\377\3778\000\000\000\200\000\000\000"
      }
    }
  }
}
node {
  name: "Reshape_13"
  op: "Reshape"
  input: "MatMul_7"
  input: "Reshape_13/shape"
  attr {
    key: "T"
    value {
      type: DT_FLOAT
    }
  }
  attr {
    key: "Tshape"
    value {
      type: DT_INT32
    }
  }
}
node {
  name: "strided_slice_4/stack"
  op: "Const"
  attr {
    key: "dtype"
    value {
      type: DT_INT32
    }
  }
  attr {
    key: "value"
    value {
      tensor {
        dtype: DT_INT32
        tensor_shape {
          dim {
            size: 1
          }
        }
        int_val: 0
      }
    }
  }
}
node {
  name: "strided_slice_4/stack_1"
  op: "Const"
  attr {
    key: "dtype"
    value {
      type: DT_INT32
    }
  }
  attr {
    key: "value"
    value {
      tensor {
        dtype: DT_INT32
        tensor_shape {
          dim {
            size: 1
          }
        }
        int_val: 0
      }
    }
  }
}
node {
  name: "strided_slice_4/stack_2"
  op: "Const"
  attr {
    key: "dtype"
    value {
      type: DT_INT32
    }
  }
  attr {
    key: "value"
    value {
      tensor {
        dtype: DT_INT32
        tensor_shape {
          dim {
            size: 1
          }
        }
        int_val: 1
      }
    }
  }
}
node {
  name: "strided_slice_4"
  op: "StridedSlice"
  input: "Const"
  input: "strided_slice_4/stack"
  input: "strided_slice_4/stack_1"
  input: "strided_slice_4/stack_2"
  attr {
    key: "Index"
    value {
      type: DT_INT32
    }
  }
  attr {
    key: "T"
    value {
      type: DT_FLOAT
    }
  }
  attr {
    key: "begin_mask"
    value {
      i: 0
    }
  }
  attr {
    key: "ellipsis_mask"
    value {
      i: 0
    }
  }
  attr {
    key: "end_mask"
    value {
      i: 0
    }
  }
  attr {
    key: "new_axis_mask"
    value {
      i: 1
    }
  }
  attr {
    key: "shrink_axis_mask"
    value {
      i: 0
    }
  }
}
node {
  name: "Shape_2"
  op: "Shape"
  input: "LeakyRelu_1"
  attr {
    key: "T"
    value {
      type: DT_FLOAT
    }
  }
  attr {
    key: "out_type"
    value {
      type: DT_INT32
    }
  }
}
node {
  name: "strided_slice_5/stack"
  op: "Const"
  attr {
    key: "dtype"
    value {
      type: DT_INT32
    }
  }
  attr {
    key: "value"
    value {
      tensor {
        dtype: DT_INT32
        tensor_shape {
          dim {
            size: 1
          }
        }
        int_val: 0
      }
    }
  }
}
node {
  name: "strided_slice_5/stack_1"
  op: "Const"
  attr {
    key: "dtype"
    value {
      type: DT_INT32
    }
  }
  attr {
    key: "value"
    value {
      tensor {
        dtype: DT_INT32
        tensor_shape {
          dim {
            size: 1
          }
        }
        int_val: 1
      }
    }
  }
}
node {
  name: "strided_slice_5/stack_2"
  op: "Const"
  attr {
    key: "dtype"
    value {
      type: DT_INT32
    }
  }
  attr {
    key: "value"
    value {
      tensor {
        dtype: DT_INT32
        tensor_shape {
          dim {
            size: 1
          }
        }
        int_val: 1
      }
    }
  }
}
node {
  name: "strided_slice_5"
  op: "StridedSlice"
  input: "Shape_2"
  input: "strided_slice_5/stack"
  input: "strided_slice_5/stack_1"
  input: "strided_slice_5/stack_2"
  attr {
    key: "Index"
    value {
      type: DT_INT32
    }
  }
  attr {
    key: "T"
    value {
      type: DT_INT32
    }
  }
  attr {
    key: "begin_mask"
    value {
      i: 0
    }
  }
  attr {
    key: "ellipsis_mask"
    value {
      i: 0
    }
  }
  attr {
    key: "end_mask"
    value {
      i: 0
    }
  }
  attr {
    key: "new_axis_mask"
    value {
      i: 0
    }
  }
  attr {
    key: "shrink_axis_mask"
    value {
      i: 1
    }
  }
}
node {
  name: "Tile_2/multiples/1"
  op: "Const"
  attr {
    key: "dtype"
    value {
      type: DT_INT32
    }
  }
  attr {
    key: "value"
    value {
      tensor {
        dtype: DT_INT32
        tensor_shape {
        }
        int_val: 1
      }
    }
  }
}
node {
  name: "Tile_2/multiples/2"
  op: "Const"
  attr {
    key: "dtype"
    value {
      type: DT_INT32
    }
  }
  attr {
    key: "value"
    value {
      tensor {
        dtype: DT_INT32
        tensor_shape {
        }
        int_val: 1
      }
    }
  }
}
node {
  name: "Tile_2/multiples"
  op: "Pack"
  input: "strided_slice_5"
  input: "Tile_2/multiples/1"
  input: "Tile_2/multiples/2"
  attr {
    key: "N"
    value {
      i: 3
    }
  }
  attr {
    key: "T"
    value {
      type: DT_INT32
    }
  }
  attr {
    key: "axis"
    value {
      i: 0
    }
  }
}
node {
  name: "Tile_2"
  op: "Tile"
  input: "strided_slice_4"
  input: "Tile_2/multiples"
  attr {
    key: "T"
    value {
      type: DT_FLOAT
    }
  }
  attr {
    key: "Tmultiples"
    value {
      type: DT_INT32
    }
  }
}
node {
  name: "MatMul_8"
  op: "BatchMatMulV2"
  input: "Tile_2"
  input: "Reshape_13"
  attr {
    key: "T"
    value {
      type: DT_FLOAT
    }
  }
  attr {
    key: "adj_x"
    value {
      b: false
    }
  }
  attr {
    key: "adj_y"
    value {
      b: false
    }
  }
}
node {
  name: "Const_4"
  op: "Const"
  attr {
    key: "dtype"
    value {
      type: DT_FLOAT
    }
  }
  attr {
    key: "value"
    value {
      tensor {
        dtype: DT_FLOAT
        tensor_shape {
        }
        float_val: 1.0
      }
    }
  }
}
node {
  name: "Sum_2/reduction_indices"
  op: "Const"
  attr {
    key: "dtype"
    value {
      type: DT_INT32
    }
  }
  attr {
    key: "value"
    value {
      tensor {
        dtype: DT_INT32
        tensor_shape {
        }
        int_val: 1
      }
    }
  }
}
node {
  name: "Sum_2"
  op: "Sum"
  input: "Const"
  input: "Sum_2/reduction_indices"
  attr {
    key: "T"
    value {
      type: DT_FLOAT
    }
  }
  attr {
    key: "Tidx"
    value {
      type: DT_INT32
    }
  }
  attr {
    key: "keep_dims"
    value {
      b: false
    }
  }
}
node {
  name: "Maximum_2"
  op: "Maximum"
  input: "Const_4"
  input: "Sum_2"
  attr {
    key: "T"
    value {
      type: DT_FLOAT
    }
  }
}
node {
  name: "Reshape_14/shape"
  op: "Const"
  attr {
    key: "dtype"
    value {
      type: DT_INT32
    }
  }
  attr {
    key: "value"
    value {
      tensor {
        dtype: DT_INT32
        tensor_shape {
          dim {
            size: 2
          }
        }
        tensor_content: "\377\377\377\377\001\000\000\000"
      }
    }
  }
}
node {
  name: "Reshape_14"
  op: "Reshape"
  input: "Maximum_2"
  input: "Reshape_14/shape"
  attr {
    key: "T"
    value {
      type: DT_FLOAT
    }
  }
  attr {
    key: "Tshape"
    value {
      type: DT_INT32
    }
  }
}
node {
  name: "truediv_2"
  op: "RealDiv"
  input: "MatMul_8"
  input: "Reshape_14"
  attr {
    key: "T"
    value {
      type: DT_FLOAT
    }
  }
}
node {
  name: "add_4"
  op: "Add"
  input: "Reshape_11"
  input: "truediv_2"
  attr {
    key: "T"
    value {
      type: DT_FLOAT
    }
  }
}
node {
  name: "add_5"
  op: "Add"
  input: "add_4"
  input: "b_2/read"
  attr {
    key: "T"
    value {
      type: DT_FLOAT
    }
  }
}
node {
  name: "LeakyRelu_2"
  op: "LeakyRelu"
  input: "add_5"
  attr {
    key: "T"
    value {
      type: DT_FLOAT
    }
  }
  attr {
    key: "alpha"
    value {
      f: 0.20000000298023224
    }
  }
}
node {
  name: "random_uniform_6/shape"
  op: "Const"
  attr {
    key: "dtype"
    value {
      type: DT_INT32
    }
  }
  attr {
    key: "value"
    value {
      tensor {
        dtype: DT_INT32
        tensor_shape {
          dim {
            size: 2
          }
        }
        tensor_content: "\200\000\000\000\200\000\000\000"
      }
    }
  }
}
node {
  name: "random_uniform_6/min"
  op: "Const"
  attr {
    key: "dtype"
    value {
      type: DT_FLOAT
    }
  }
  attr {
    key: "value"
    value {
      tensor {
        dtype: DT_FLOAT
        tensor_shape {
        }
        float_val: -0.0078125
      }
    }
  }
}
node {
  name: "random_uniform_6/max"
  op: "Const"
  attr {
    key: "dtype"
    value {
      type: DT_FLOAT
    }
  }
  attr {
    key: "value"
    value {
      tensor {
        dtype: DT_FLOAT
        tensor_shape {
        }
        float_val: 0.0078125
      }
    }
  }
}
node {
  name: "random_uniform_6/RandomUniform"
  op: "RandomUniform"
  input: "random_uniform_6/shape"
  attr {
    key: "T"
    value {
      type: DT_INT32
    }
  }
  attr {
    key: "dtype"
    value {
      type: DT_FLOAT
    }
  }
  attr {
    key: "seed"
    value {
      i: 7
    }
  }
  attr {
    key: "seed2"
    value {
      i: 197
    }
  }
}
node {
  name: "random_uniform_6/sub"
  op: "Sub"
  input: "random_uniform_6/max"
  input: "random_uniform_6/min"
  attr {
    key: "T"
    value {
      type: DT_FLOAT
    }
  }
}
node {
  name: "random_uniform_6/mul"
  op: "Mul"
  input: "random_uniform_6/RandomUniform"
  input: "random_uniform_6/sub"
  attr {
    key: "T"
    value {
      type: DT_FLOAT
    }
  }
}
node {
  name: "random_uniform_6"
  op: "Add"
  input: "random_uniform_6/mul"
  input: "random_uniform_6/min"
  attr {
    key: "T"
    value {
      type: DT_FLOAT
    }
  }
}
node {
  name: "Wc_3"
  op: "VariableV2"
  attr {
    key: "container"
    value {
      s: ""
    }
  }
  attr {
    key: "dtype"
    value {
      type: DT_FLOAT
    }
  }
  attr {
    key: "shape"
    value {
      shape {
        dim {
          size: 128
        }
        dim {
          size: 128
        }
      }
    }
  }
  attr {
    key: "shared_name"
    value {
      s: ""
    }
  }
}
node {
  name: "Wc_3/Assign"
  op: "Assign"
  input: "Wc_3"
  input: "random_uniform_6"
  attr {
    key: "T"
    value {
      type: DT_FLOAT
    }
  }
  attr {
    key: "_class"
    value {
      list {
        s: "loc:@Wc_3"
      }
    }
  }
  attr {
    key: "use_locking"
    value {
      b: true
    }
  }
  attr {
    key: "validate_shape"
    value {
      b: true
    }
  }
}
node {
  name: "Wc_3/read"
  op: "Identity"
  input: "Wc_3"
  attr {
    key: "T"
    value {
      type: DT_FLOAT
    }
  }
  attr {
    key: "_class"
    value {
      list {
        s: "loc:@Wc_3"
      }
    }
  }
}
node {
  name: "random_uniform_7/shape"
  op: "Const"
  attr {
    key: "dtype"
    value {
      type: DT_INT32
    }
  }
  attr {
    key: "value"
    value {
      tensor {
        dtype: DT_INT32
        tensor_shape {
          dim {
            size: 2
          }
        }
        tensor_content: "\200\000\000\000\200\000\000\000"
      }
    }
  }
}
node {
  name: "random_uniform_7/min"
  op: "Const"
  attr {
    key: "dtype"
    value {
      type: DT_FLOAT
    }
  }
  attr {
    key: "value"
    value {
      tensor {
        dtype: DT_FLOAT
        tensor_shape {
        }
        float_val: -0.0078125
      }
    }
  }
}
node {
  name: "random_uniform_7/max"
  op: "Const"
  attr {
    key: "dtype"
    value {
      type: DT_FLOAT
    }
  }
  attr {
    key: "value"
    value {
      tensor {
        dtype: DT_FLOAT
        tensor_shape {
        }
        float_val: 0.0078125
      }
    }
  }
}
node {
  name: "random_uniform_7/RandomUniform"
  op: "RandomUniform"
  input: "random_uniform_7/shape"
  attr {
    key: "T"
    value {
      type: DT_INT32
    }
  }
  attr {
    key: "dtype"
    value {
      type: DT_FLOAT
    }
  }
  attr {
    key: "seed"
    value {
      i: 7
    }
  }
  attr {
    key: "seed2"
    value {
      i: 207
    }
  }
}
node {
  name: "random_uniform_7/sub"
  op: "Sub"
  input: "random_uniform_7/max"
  input: "random_uniform_7/min"
  attr {
    key: "T"
    value {
      type: DT_FLOAT
    }
  }
}
node {
  name: "random_uniform_7/mul"
  op: "Mul"
  input: "random_uniform_7/RandomUniform"
  input: "random_uniform_7/sub"
  attr {
    key: "T"
    value {
      type: DT_FLOAT
    }
  }
}
node {
  name: "random_uniform_7"
  op: "Add"
  input: "random_uniform_7/mul"
  input: "random_uniform_7/min"
  attr {
    key: "T"
    value {
      type: DT_FLOAT
    }
  }
}
node {
  name: "Wn_3"
  op: "VariableV2"
  attr {
    key: "container"
    value {
      s: ""
    }
  }
  attr {
    key: "dtype"
    value {
      type: DT_FLOAT
    }
  }
  attr {
    key: "shape"
    value {
      shape {
        dim {
          size: 128
        }
        dim {
          size: 128
        }
      }
    }
  }
  attr {
    key: "shared_name"
    value {
      s: ""
    }
  }
}
node {
  name: "Wn_3/Assign"
  op: "Assign"
  input: "Wn_3"
  input: "random_uniform_7"
  attr {
    key: "T"
    value {
      type: DT_FLOAT
    }
  }
  attr {
    key: "_class"
    value {
      list {
        s: "loc:@Wn_3"
      }
    }
  }
  attr {
    key: "use_locking"
    value {
      b: true
    }
  }
  attr {
    key: "validate_shape"
    value {
      b: true
    }
  }
}
node {
  name: "Wn_3/read"
  op: "Identity"
  input: "Wn_3"
  attr {
    key: "T"
    value {
      type: DT_FLOAT
    }
  }
  attr {
    key: "_class"
    value {
      list {
        s: "loc:@Wn_3"
      }
    }
  }
}
node {
  name: "zeros_3"
  op: "Const"
  attr {
    key: "dtype"
    value {
      type: DT_FLOAT
    }
  }
  attr {
    key: "value"
    value {
      tensor {
        dtype: DT_FLOAT
        tensor_shape {
          dim {
            size: 128
          }
        }
        float_val: 0.0
      }
    }
  }
}
node {
  name: "b_3"
  op: "VariableV2"
  attr {
    key: "container"
    value {
      s: ""
    }
  }
  attr {
    key: "dtype"
    value {
      type: DT_FLOAT
    }
  }
  attr {
    key: "shape"
    value {
      shape {
        dim {
          size: 128
        }
      }
    }
  }
  attr {
    key: "shared_name"
    value {
      s: ""
    }
  }
}
node {
  name: "b_3/Assign"
  op: "Assign"
  input: "b_3"
  input: "zeros_3"
  attr {
    key: "T"
    value {
      type: DT_FLOAT
    }
  }
  attr {
    key: "_class"
    value {
      list {
        s: "loc:@b_3"
      }
    }
  }
  attr {
    key: "use_locking"
    value {
      b: true
    }
  }
  attr {
    key: "validate_shape"
    value {
      b: true
    }
  }
}
node {
  name: "b_3/read"
  op: "Identity"
  input: "b_3"
  attr {
    key: "T"
    value {
      type: DT_FLOAT
    }
  }
  attr {
    key: "_class"
    value {
      list {
        s: "loc:@b_3"
      }
    }
  }
}
node {
  name: "Reshape_15/shape"
  op: "Const"
  attr {
    key: "dtype"
    value {
      type: DT_INT32
    }
  }
  attr {
    key: "value"
    value {
      tensor {
        dtype: DT_INT32
        tensor_shape {
          dim {
            size: 2
          }
        }
        tensor_content: "\377\377\377\377\200\000\000\000"
      }
    }
  }
}
node {
  name: "Reshape_15"
  op: "Reshape"
  input: "LeakyRelu_2"
  input: "Reshape_15/shape"
  attr {
    key: "T"
    value {
      type: DT_FLOAT
    }
  }
  attr {
    key: "Tshape"
    value {
      type: DT_INT32
    }
  }
}
node {
  name: "MatMul_9"
  op: "MatMul"
  input: "Reshape_15"
  input: "Wc_3/read"
  attr {
    key: "T"
    value {
      type: DT_FLOAT
    }
  }
  attr {
    key: "transpose_a"
    value {
      b: false
    }
  }
  attr {
    key: "transpose_b"
    value {
      b: false
    }
  }
}
node {
  name: "Reshape_16/shape"
  op: "Const"
  attr {
    key: "dtype"
    value {
      type: DT_INT32
    }
  }
  attr {
    key: "value"
    value {
      tensor {
        dtype: DT_INT32
        tensor_shape {
          dim {
            size: 3
          }
        }
        tensor_content: "\377\377\377\3778\000\000\000\200\000\000\000"
      }
    }
  }
}
node {
  name: "Reshape_16"
  op: "Reshape"
  input: "MatMul_9"
  input: "Reshape_16/shape"
  attr {
    key: "T"
    value {
      type: DT_FLOAT
    }
  }
  attr {
    key: "Tshape"
    value {
      type: DT_INT32
    }
  }
}
node {
  name: "Reshape_17/shape"
  op: "Const"
  attr {
    key: "dtype"
    value {
      type: DT_INT32
    }
  }
  attr {
    key: "value"
    value {
      tensor {
        dtype: DT_INT32
        tensor_shape {
          dim {
            size: 2
          }
        }
        tensor_content: "\377\377\377\377\200\000\000\000"
      }
    }
  }
}
node {
  name: "Reshape_17"
  op: "Reshape"
  input: "LeakyRelu_2"
  input: "Reshape_17/shape"
  attr {
    key: "T"
    value {
      type: DT_FLOAT
    }
  }
  attr {
    key: "Tshape"
    value {
      type: DT_INT32
    }
  }
}
node {
  name: "MatMul_10"
  op: "MatMul"
  input: "Reshape_17"
  input: "Wn_3/read"
  attr {
    key: "T"
    value {
      type: DT_FLOAT
    }
  }
  attr {
    key: "transpose_a"
    value {
      b: false
    }
  }
  attr {
    key: "transpose_b"
    value {
      b: false
    }
  }
}
node {
  name: "Reshape_18/shape"
  op: "Const"
  attr {
    key: "dtype"
    value {
      type: DT_INT32
    }
  }
  attr {
    key: "value"
    value {
      tensor {
        dtype: DT_INT32
        tensor_shape {
          dim {
            size: 3
          }
        }
        tensor_content: "\377\377\377\3778\000\000\000\200\000\000\000"
      }
    }
  }
}
node {
  name: "Reshape_18"
  op: "Reshape"
  input: "MatMul_10"
  input: "Reshape_18/shape"
  attr {
    key: "T"
    value {
      type: DT_FLOAT
    }
  }
  attr {
    key: "Tshape"
    value {
      type: DT_INT32
    }
  }
}
node {
  name: "strided_slice_6/stack"
  op: "Const"
  attr {
    key: "dtype"
    value {
      type: DT_INT32
    }
  }
  attr {
    key: "value"
    value {
      tensor {
        dtype: DT_INT32
        tensor_shape {
          dim {
            size: 1
          }
        }
        int_val: 0
      }
    }
  }
}
node {
  name: "strided_slice_6/stack_1"
  op: "Const"
  attr {
    key: "dtype"
    value {
      type: DT_INT32
    }
  }
  attr {
    key: "value"
    value {
      tensor {
        dtype: DT_INT32
        tensor_shape {
          dim {
            size: 1
          }
        }
        int_val: 0
      }
    }
  }
}
node {
  name: "strided_slice_6/stack_2"
  op: "Const"
  attr {
    key: "dtype"
    value {
      type: DT_INT32
    }
  }
  attr {
    key: "value"
    value {
      tensor {
        dtype: DT_INT32
        tensor_shape {
          dim {
            size: 1
          }
        }
        int_val: 1
      }
    }
  }
}
node {
  name: "strided_slice_6"
  op: "StridedSlice"
  input: "Const"
  input: "strided_slice_6/stack"
  input: "strided_slice_6/stack_1"
  input: "strided_slice_6/stack_2"
  attr {
    key: "Index"
    value {
      type: DT_INT32
    }
  }
  attr {
    key: "T"
    value {
      type: DT_FLOAT
    }
  }
  attr {
    key: "begin_mask"
    value {
      i: 0
    }
  }
  attr {
    key: "ellipsis_mask"
    value {
      i: 0
    }
  }
  attr {
    key: "end_mask"
    value {
      i: 0
    }
  }
  attr {
    key: "new_axis_mask"
    value {
      i: 1
    }
  }
  attr {
    key: "shrink_axis_mask"
    value {
      i: 0
    }
  }
}
node {
  name: "Shape_3"
  op: "Shape"
  input: "LeakyRelu_2"
  attr {
    key: "T"
    value {
      type: DT_FLOAT
    }
  }
  attr {
    key: "out_type"
    value {
      type: DT_INT32
    }
  }
}
node {
  name: "strided_slice_7/stack"
  op: "Const"
  attr {
    key: "dtype"
    value {
      type: DT_INT32
    }
  }
  attr {
    key: "value"
    value {
      tensor {
        dtype: DT_INT32
        tensor_shape {
          dim {
            size: 1
          }
        }
        int_val: 0
      }
    }
  }
}
node {
  name: "strided_slice_7/stack_1"
  op: "Const"
  attr {
    key: "dtype"
    value {
      type: DT_INT32
    }
  }
  attr {
    key: "value"
    value {
      tensor {
        dtype: DT_INT32
        tensor_shape {
          dim {
            size: 1
          }
        }
        int_val: 1
      }
    }
  }
}
node {
  name: "strided_slice_7/stack_2"
  op: "Const"
  attr {
    key: "dtype"
    value {
      type: DT_INT32
    }
  }
  attr {
    key: "value"
    value {
      tensor {
        dtype: DT_INT32
        tensor_shape {
          dim {
            size: 1
          }
        }
        int_val: 1
      }
    }
  }
}
node {
  name: "strided_slice_7"
  op: "StridedSlice"
  input: "Shape_3"
  input: "strided_slice_7/stack"
  input: "strided_slice_7/stack_1"
  input: "strided_slice_7/stack_2"
  attr {
    key: "Index"
    value {
      type: DT_INT32
    }
  }
  attr {
    key: "T"
    value {
      type: DT_INT32
    }
  }
  attr {
    key: "begin_mask"
    value {
      i: 0
    }
  }
  attr {
    key: "ellipsis_mask"
    value {
      i: 0
    }
  }
  attr {
    key: "end_mask"
    value {
      i: 0
    }
  }
  attr {
    key: "new_axis_mask"
    value {
      i: 0
    }
  }
  attr {
    key: "shrink_axis_mask"
    value {
      i: 1
    }
  }
}
node {
  name: "Tile_3/multiples/1"
  op: "Const"
  attr {
    key: "dtype"
    value {
      type: DT_INT32
    }
  }
  attr {
    key: "value"
    value {
      tensor {
        dtype: DT_INT32
        tensor_shape {
        }
        int_val: 1
      }
    }
  }
}
node {
  name: "Tile_3/multiples/2"
  op: "Const"
  attr {
    key: "dtype"
    value {
      type: DT_INT32
    }
  }
  attr {
    key: "value"
    value {
      tensor {
        dtype: DT_INT32
        tensor_shape {
        }
        int_val: 1
      }
    }
  }
}
node {
  name: "Tile_3/multiples"
  op: "Pack"
  input: "strided_slice_7"
  input: "Tile_3/multiples/1"
  input: "Tile_3/multiples/2"
  attr {
    key: "N"
    value {
      i: 3
    }
  }
  attr {
    key: "T"
    value {
      type: DT_INT32
    }
  }
  attr {
    key: "axis"
    value {
      i: 0
    }
  }
}
node {
  name: "Tile_3"
  op: "Tile"
  input: "strided_slice_6"
  input: "Tile_3/multiples"
  attr {
    key: "T"
    value {
      type: DT_FLOAT
    }
  }
  attr {
    key: "Tmultiples"
    value {
      type: DT_INT32
    }
  }
}
node {
  name: "MatMul_11"
  op: "BatchMatMulV2"
  input: "Tile_3"
  input: "Reshape_18"
  attr {
    key: "T"
    value {
      type: DT_FLOAT
    }
  }
  attr {
    key: "adj_x"
    value {
      b: false
    }
  }
  attr {
    key: "adj_y"
    value {
      b: false
    }
  }
}
node {
  name: "Const_5"
  op: "Const"
  attr {
    key: "dtype"
    value {
      type: DT_FLOAT
    }
  }
  attr {
    key: "value"
    value {
      tensor {
        dtype: DT_FLOAT
        tensor_shape {
        }
        float_val: 1.0
      }
    }
  }
}
node {
  name: "Sum_3/reduction_indices"
  op: "Const"
  attr {
    key: "dtype"
    value {
      type: DT_INT32
    }
  }
  attr {
    key: "value"
    value {
      tensor {
        dtype: DT_INT32
        tensor_shape {
        }
        int_val: 1
      }
    }
  }
}
node {
  name: "Sum_3"
  op: "Sum"
  input: "Const"
  input: "Sum_3/reduction_indices"
  attr {
    key: "T"
    value {
      type: DT_FLOAT
    }
  }
  attr {
    key: "Tidx"
    value {
      type: DT_INT32
    }
  }
  attr {
    key: "keep_dims"
    value {
      b: false
    }
  }
}
node {
  name: "Maximum_3"
  op: "Maximum"
  input: "Const_5"
  input: "Sum_3"
  attr {
    key: "T"
    value {
      type: DT_FLOAT
    }
  }
}
node {
  name: "Reshape_19/shape"
  op: "Const"
  attr {
    key: "dtype"
    value {
      type: DT_INT32
    }
  }
  attr {
    key: "value"
    value {
      tensor {
        dtype: DT_INT32
        tensor_shape {
          dim {
            size: 2
          }
        }
        tensor_content: "\377\377\377\377\001\000\000\000"
      }
    }
  }
}
node {
  name: "Reshape_19"
  op: "Reshape"
  input: "Maximum_3"
  input: "Reshape_19/shape"
  attr {
    key: "T"
    value {
      type: DT_FLOAT
    }
  }
  attr {
    key: "Tshape"
    value {
      type: DT_INT32
    }
  }
}
node {
  name: "truediv_3"
  op: "RealDiv"
  input: "MatMul_11"
  input: "Reshape_19"
  attr {
    key: "T"
    value {
      type: DT_FLOAT
    }
  }
}
node {
  name: "add_6"
  op: "Add"
  input: "Reshape_16"
  input: "truediv_3"
  attr {
    key: "T"
    value {
      type: DT_FLOAT
    }
  }
}
node {
  name: "add_7"
  op: "Add"
  input: "add_6"
  input: "b_3/read"
  attr {
    key: "T"
    value {
      type: DT_FLOAT
    }
  }
}
node {
  name: "LeakyRelu_3"
  op: "LeakyRelu"
  input: "add_7"
  attr {
    key: "T"
    value {
      type: DT_FLOAT
    }
  }
  attr {
    key: "alpha"
    value {
      f: 0.20000000298023224
    }
  }
}
node {
  name: "random_uniform_8/shape"
  op: "Const"
  attr {
    key: "dtype"
    value {
      type: DT_INT32
    }
  }
  attr {
    key: "value"
    value {
      tensor {
        dtype: DT_INT32
        tensor_shape {
          dim {
            size: 2
          }
        }
        tensor_content: "\200\000\000\000\200\000\000\000"
      }
    }
  }
}
node {
  name: "random_uniform_8/min"
  op: "Const"
  attr {
    key: "dtype"
    value {
      type: DT_FLOAT
    }
  }
  attr {
    key: "value"
    value {
      tensor {
        dtype: DT_FLOAT
        tensor_shape {
        }
        float_val: -0.0078125
      }
    }
  }
}
node {
  name: "random_uniform_8/max"
  op: "Const"
  attr {
    key: "dtype"
    value {
      type: DT_FLOAT
    }
  }
  attr {
    key: "value"
    value {
      tensor {
        dtype: DT_FLOAT
        tensor_shape {
        }
        float_val: 0.0078125
      }
    }
  }
}
node {
  name: "random_uniform_8/RandomUniform"
  op: "RandomUniform"
  input: "random_uniform_8/shape"
  attr {
    key: "T"
    value {
      type: DT_INT32
    }
  }
  attr {
    key: "dtype"
    value {
      type: DT_FLOAT
    }
  }
  attr {
    key: "seed"
    value {
      i: 7
    }
  }
  attr {
    key: "seed2"
    value {
      i: 255
    }
  }
}
node {
  name: "random_uniform_8/sub"
  op: "Sub"
  input: "random_uniform_8/max"
  input: "random_uniform_8/min"
  attr {
    key: "T"
    value {
      type: DT_FLOAT
    }
  }
}
node {
  name: "random_uniform_8/mul"
  op: "Mul"
  input: "random_uniform_8/RandomUniform"
  input: "random_uniform_8/sub"
  attr {
    key: "T"
    value {
      type: DT_FLOAT
    }
  }
}
node {
  name: "random_uniform_8"
  op: "Add"
  input: "random_uniform_8/mul"
  input: "random_uniform_8/min"
  attr {
    key: "T"
    value {
      type: DT_FLOAT
    }
  }
}
node {
  name: "Wc_4"
  op: "VariableV2"
  attr {
    key: "container"
    value {
      s: ""
    }
  }
  attr {
    key: "dtype"
    value {
      type: DT_FLOAT
    }
  }
  attr {
    key: "shape"
    value {
      shape {
        dim {
          size: 128
        }
        dim {
          size: 128
        }
      }
    }
  }
  attr {
    key: "shared_name"
    value {
      s: ""
    }
  }
}
node {
  name: "Wc_4/Assign"
  op: "Assign"
  input: "Wc_4"
  input: "random_uniform_8"
  attr {
    key: "T"
    value {
      type: DT_FLOAT
    }
  }
  attr {
    key: "_class"
    value {
      list {
        s: "loc:@Wc_4"
      }
    }
  }
  attr {
    key: "use_locking"
    value {
      b: true
    }
  }
  attr {
    key: "validate_shape"
    value {
      b: true
    }
  }
}
node {
  name: "Wc_4/read"
  op: "Identity"
  input: "Wc_4"
  attr {
    key: "T"
    value {
      type: DT_FLOAT
    }
  }
  attr {
    key: "_class"
    value {
      list {
        s: "loc:@Wc_4"
      }
    }
  }
}
node {
  name: "random_uniform_9/shape"
  op: "Const"
  attr {
    key: "dtype"
    value {
      type: DT_INT32
    }
  }
  attr {
    key: "value"
    value {
      tensor {
        dtype: DT_INT32
        tensor_shape {
          dim {
            size: 2
          }
        }
        tensor_content: "\200\000\000\000\200\000\000\000"
      }
    }
  }
}
node {
  name: "random_uniform_9/min"
  op: "Const"
  attr {
    key: "dtype"
    value {
      type: DT_FLOAT
    }
  }
  attr {
    key: "value"
    value {
      tensor {
        dtype: DT_FLOAT
        tensor_shape {
        }
        float_val: -0.0078125
      }
    }
  }
}
node {
  name: "random_uniform_9/max"
  op: "Const"
  attr {
    key: "dtype"
    value {
      type: DT_FLOAT
    }
  }
  attr {
    key: "value"
    value {
      tensor {
        dtype: DT_FLOAT
        tensor_shape {
        }
        float_val: 0.0078125
      }
    }
  }
}
node {
  name: "random_uniform_9/RandomUniform"
  op: "RandomUniform"
  input: "random_uniform_9/shape"
  attr {
    key: "T"
    value {
      type: DT_INT32
    }
  }
  attr {
    key: "dtype"
    value {
      type: DT_FLOAT
    }
  }
  attr {
    key: "seed"
    value {
      i: 7
    }
  }
  attr {
    key: "seed2"
    value {
      i: 265
    }
  }
}
node {
  name: "random_uniform_9/sub"
  op: "Sub"
  input: "random_uniform_9/max"
  input: "random_uniform_9/min"
  attr {
    key: "T"
    value {
      type: DT_FLOAT
    }
  }
}
node {
  name: "random_uniform_9/mul"
  op: "Mul"
  input: "random_uniform_9/RandomUniform"
  input: "random_uniform_9/sub"
  attr {
    key: "T"
    value {
      type: DT_FLOAT
    }
  }
}
node {
  name: "random_uniform_9"
  op: "Add"
  input: "random_uniform_9/mul"
  input: "random_uniform_9/min"
  attr {
    key: "T"
    value {
      type: DT_FLOAT
    }
  }
}
node {
  name: "Wn_4"
  op: "VariableV2"
  attr {
    key: "container"
    value {
      s: ""
    }
  }
  attr {
    key: "dtype"
    value {
      type: DT_FLOAT
    }
  }
  attr {
    key: "shape"
    value {
      shape {
        dim {
          size: 128
        }
        dim {
          size: 128
        }
      }
    }
  }
  attr {
    key: "shared_name"
    value {
      s: ""
    }
  }
}
node {
  name: "Wn_4/Assign"
  op: "Assign"
  input: "Wn_4"
  input: "random_uniform_9"
  attr {
    key: "T"
    value {
      type: DT_FLOAT
    }
  }
  attr {
    key: "_class"
    value {
      list {
        s: "loc:@Wn_4"
      }
    }
  }
  attr {
    key: "use_locking"
    value {
      b: true
    }
  }
  attr {
    key: "validate_shape"
    value {
      b: true
    }
  }
}
node {
  name: "Wn_4/read"
  op: "Identity"
  input: "Wn_4"
  attr {
    key: "T"
    value {
      type: DT_FLOAT
    }
  }
  attr {
    key: "_class"
    value {
      list {
        s: "loc:@Wn_4"
      }
    }
  }
}
node {
  name: "zeros_4"
  op: "Const"
  attr {
    key: "dtype"
    value {
      type: DT_FLOAT
    }
  }
  attr {
    key: "value"
    value {
      tensor {
        dtype: DT_FLOAT
        tensor_shape {
          dim {
            size: 128
          }
        }
        float_val: 0.0
      }
    }
  }
}
node {
  name: "b_4"
  op: "VariableV2"
  attr {
    key: "container"
    value {
      s: ""
    }
  }
  attr {
    key: "dtype"
    value {
      type: DT_FLOAT
    }
  }
  attr {
    key: "shape"
    value {
      shape {
        dim {
          size: 128
        }
      }
    }
  }
  attr {
    key: "shared_name"
    value {
      s: ""
    }
  }
}
node {
  name: "b_4/Assign"
  op: "Assign"
  input: "b_4"
  input: "zeros_4"
  attr {
    key: "T"
    value {
      type: DT_FLOAT
    }
  }
  attr {
    key: "_class"
    value {
      list {
        s: "loc:@b_4"
      }
    }
  }
  attr {
    key: "use_locking"
    value {
      b: true
    }
  }
  attr {
    key: "validate_shape"
    value {
      b: true
    }
  }
}
node {
  name: "b_4/read"
  op: "Identity"
  input: "b_4"
  attr {
    key: "T"
    value {
      type: DT_FLOAT
    }
  }
  attr {
    key: "_class"
    value {
      list {
        s: "loc:@b_4"
      }
    }
  }
}
node {
  name: "Reshape_20/shape"
  op: "Const"
  attr {
    key: "dtype"
    value {
      type: DT_INT32
    }
  }
  attr {
    key: "value"
    value {
      tensor {
        dtype: DT_INT32
        tensor_shape {
          dim {
            size: 2
          }
        }
        tensor_content: "\377\377\377\377\200\000\000\000"
      }
    }
  }
}
node {
  name: "Reshape_20"
  op: "Reshape"
  input: "LeakyRelu_3"
  input: "Reshape_20/shape"
  attr {
    key: "T"
    value {
      type: DT_FLOAT
    }
  }
  attr {
    key: "Tshape"
    value {
      type: DT_INT32
    }
  }
}
node {
  name: "MatMul_12"
  op: "MatMul"
  input: "Reshape_20"
  input: "Wc_4/read"
  attr {
    key: "T"
    value {
      type: DT_FLOAT
    }
  }
  attr {
    key: "transpose_a"
    value {
      b: false
    }
  }
  attr {
    key: "transpose_b"
    value {
      b: false
    }
  }
}
node {
  name: "Reshape_21/shape"
  op: "Const"
  attr {
    key: "dtype"
    value {
      type: DT_INT32
    }
  }
  attr {
    key: "value"
    value {
      tensor {
        dtype: DT_INT32
        tensor_shape {
          dim {
            size: 3
          }
        }
        tensor_content: "\377\377\377\3778\000\000\000\200\000\000\000"
      }
    }
  }
}
node {
  name: "Reshape_21"
  op: "Reshape"
  input: "MatMul_12"
  input: "Reshape_21/shape"
  attr {
    key: "T"
    value {
      type: DT_FLOAT
    }
  }
  attr {
    key: "Tshape"
    value {
      type: DT_INT32
    }
  }
}
node {
  name: "Reshape_22/shape"
  op: "Const"
  attr {
    key: "dtype"
    value {
      type: DT_INT32
    }
  }
  attr {
    key: "value"
    value {
      tensor {
        dtype: DT_INT32
        tensor_shape {
          dim {
            size: 2
          }
        }
        tensor_content: "\377\377\377\377\200\000\000\000"
      }
    }
  }
}
node {
  name: "Reshape_22"
  op: "Reshape"
  input: "LeakyRelu_3"
  input: "Reshape_22/shape"
  attr {
    key: "T"
    value {
      type: DT_FLOAT
    }
  }
  attr {
    key: "Tshape"
    value {
      type: DT_INT32
    }
  }
}
node {
  name: "MatMul_13"
  op: "MatMul"
  input: "Reshape_22"
  input: "Wn_4/read"
  attr {
    key: "T"
    value {
      type: DT_FLOAT
    }
  }
  attr {
    key: "transpose_a"
    value {
      b: false
    }
  }
  attr {
    key: "transpose_b"
    value {
      b: false
    }
  }
}
node {
  name: "Reshape_23/shape"
  op: "Const"
  attr {
    key: "dtype"
    value {
      type: DT_INT32
    }
  }
  attr {
    key: "value"
    value {
      tensor {
        dtype: DT_INT32
        tensor_shape {
          dim {
            size: 3
          }
        }
        tensor_content: "\377\377\377\3778\000\000\000\200\000\000\000"
      }
    }
  }
}
node {
  name: "Reshape_23"
  op: "Reshape"
  input: "MatMul_13"
  input: "Reshape_23/shape"
  attr {
    key: "T"
    value {
      type: DT_FLOAT
    }
  }
  attr {
    key: "Tshape"
    value {
      type: DT_INT32
    }
  }
}
node {
  name: "strided_slice_8/stack"
  op: "Const"
  attr {
    key: "dtype"
    value {
      type: DT_INT32
    }
  }
  attr {
    key: "value"
    value {
      tensor {
        dtype: DT_INT32
        tensor_shape {
          dim {
            size: 1
          }
        }
        int_val: 0
      }
    }
  }
}
node {
  name: "strided_slice_8/stack_1"
  op: "Const"
  attr {
    key: "dtype"
    value {
      type: DT_INT32
    }
  }
  attr {
    key: "value"
    value {
      tensor {
        dtype: DT_INT32
        tensor_shape {
          dim {
            size: 1
          }
        }
        int_val: 0
      }
    }
  }
}
node {
  name: "strided_slice_8/stack_2"
  op: "Const"
  attr {
    key: "dtype"
    value {
      type: DT_INT32
    }
  }
  attr {
    key: "value"
    value {
      tensor {
        dtype: DT_INT32
        tensor_shape {
          dim {
            size: 1
          }
        }
        int_val: 1
      }
    }
  }
}
node {
  name: "strided_slice_8"
  op: "StridedSlice"
  input: "Const"
  input: "strided_slice_8/stack"
  input: "strided_slice_8/stack_1"
  input: "strided_slice_8/stack_2"
  attr {
    key: "Index"
    value {
      type: DT_INT32
    }
  }
  attr {
    key: "T"
    value {
      type: DT_FLOAT
    }
  }
  attr {
    key: "begin_mask"
    value {
      i: 0
    }
  }
  attr {
    key: "ellipsis_mask"
    value {
      i: 0
    }
  }
  attr {
    key: "end_mask"
    value {
      i: 0
    }
  }
  attr {
    key: "new_axis_mask"
    value {
      i: 1
    }
  }
  attr {
    key: "shrink_axis_mask"
    value {
      i: 0
    }
  }
}
node {
  name: "Shape_4"
  op: "Shape"
  input: "LeakyRelu_3"
  attr {
    key: "T"
    value {
      type: DT_FLOAT
    }
  }
  attr {
    key: "out_type"
    value {
      type: DT_INT32
    }
  }
}
node {
  name: "strided_slice_9/stack"
  op: "Const"
  attr {
    key: "dtype"
    value {
      type: DT_INT32
    }
  }
  attr {
    key: "value"
    value {
      tensor {
        dtype: DT_INT32
        tensor_shape {
          dim {
            size: 1
          }
        }
        int_val: 0
      }
    }
  }
}
node {
  name: "strided_slice_9/stack_1"
  op: "Const"
  attr {
    key: "dtype"
    value {
      type: DT_INT32
    }
  }
  attr {
    key: "value"
    value {
      tensor {
        dtype: DT_INT32
        tensor_shape {
          dim {
            size: 1
          }
        }
        int_val: 1
      }
    }
  }
}
node {
  name: "strided_slice_9/stack_2"
  op: "Const"
  attr {
    key: "dtype"
    value {
      type: DT_INT32
    }
  }
  attr {
    key: "value"
    value {
      tensor {
        dtype: DT_INT32
        tensor_shape {
          dim {
            size: 1
          }
        }
        int_val: 1
      }
    }
  }
}
node {
  name: "strided_slice_9"
  op: "StridedSlice"
  input: "Shape_4"
  input: "strided_slice_9/stack"
  input: "strided_slice_9/stack_1"
  input: "strided_slice_9/stack_2"
  attr {
    key: "Index"
    value {
      type: DT_INT32
    }
  }
  attr {
    key: "T"
    value {
      type: DT_INT32
    }
  }
  attr {
    key: "begin_mask"
    value {
      i: 0
    }
  }
  attr {
    key: "ellipsis_mask"
    value {
      i: 0
    }
  }
  attr {
    key: "end_mask"
    value {
      i: 0
    }
  }
  attr {
    key: "new_axis_mask"
    value {
      i: 0
    }
  }
  attr {
    key: "shrink_axis_mask"
    value {
      i: 1
    }
  }
}
node {
  name: "Tile_4/multiples/1"
  op: "Const"
  attr {
    key: "dtype"
    value {
      type: DT_INT32
    }
  }
  attr {
    key: "value"
    value {
      tensor {
        dtype: DT_INT32
        tensor_shape {
        }
        int_val: 1
      }
    }
  }
}
node {
  name: "Tile_4/multiples/2"
  op: "Const"
  attr {
    key: "dtype"
    value {
      type: DT_INT32
    }
  }
  attr {
    key: "value"
    value {
      tensor {
        dtype: DT_INT32
        tensor_shape {
        }
        int_val: 1
      }
    }
  }
}
node {
  name: "Tile_4/multiples"
  op: "Pack"
  input: "strided_slice_9"
  input: "Tile_4/multiples/1"
  input: "Tile_4/multiples/2"
  attr {
    key: "N"
    value {
      i: 3
    }
  }
  attr {
    key: "T"
    value {
      type: DT_INT32
    }
  }
  attr {
    key: "axis"
    value {
      i: 0
    }
  }
}
node {
  name: "Tile_4"
  op: "Tile"
  input: "strided_slice_8"
  input: "Tile_4/multiples"
  attr {
    key: "T"
    value {
      type: DT_FLOAT
    }
  }
  attr {
    key: "Tmultiples"
    value {
      type: DT_INT32
    }
  }
}
node {
  name: "MatMul_14"
  op: "BatchMatMulV2"
  input: "Tile_4"
  input: "Reshape_23"
  attr {
    key: "T"
    value {
      type: DT_FLOAT
    }
  }
  attr {
    key: "adj_x"
    value {
      b: false
    }
  }
  attr {
    key: "adj_y"
    value {
      b: false
    }
  }
}
node {
  name: "Const_6"
  op: "Const"
  attr {
    key: "dtype"
    value {
      type: DT_FLOAT
    }
  }
  attr {
    key: "value"
    value {
      tensor {
        dtype: DT_FLOAT
        tensor_shape {
        }
        float_val: 1.0
      }
    }
  }
}
node {
  name: "Sum_4/reduction_indices"
  op: "Const"
  attr {
    key: "dtype"
    value {
      type: DT_INT32
    }
  }
  attr {
    key: "value"
    value {
      tensor {
        dtype: DT_INT32
        tensor_shape {
        }
        int_val: 1
      }
    }
  }
}
node {
  name: "Sum_4"
  op: "Sum"
  input: "Const"
  input: "Sum_4/reduction_indices"
  attr {
    key: "T"
    value {
      type: DT_FLOAT
    }
  }
  attr {
    key: "Tidx"
    value {
      type: DT_INT32
    }
  }
  attr {
    key: "keep_dims"
    value {
      b: false
    }
  }
}
node {
  name: "Maximum_4"
  op: "Maximum"
  input: "Const_6"
  input: "Sum_4"
  attr {
    key: "T"
    value {
      type: DT_FLOAT
    }
  }
}
node {
  name: "Reshape_24/shape"
  op: "Const"
  attr {
    key: "dtype"
    value {
      type: DT_INT32
    }
  }
  attr {
    key: "value"
    value {
      tensor {
        dtype: DT_INT32
        tensor_shape {
          dim {
            size: 2
          }
        }
        tensor_content: "\377\377\377\377\001\000\000\000"
      }
    }
  }
}
node {
  name: "Reshape_24"
  op: "Reshape"
  input: "Maximum_4"
  input: "Reshape_24/shape"
  attr {
    key: "T"
    value {
      type: DT_FLOAT
    }
  }
  attr {
    key: "Tshape"
    value {
      type: DT_INT32
    }
  }
}
node {
  name: "truediv_4"
  op: "RealDiv"
  input: "MatMul_14"
  input: "Reshape_24"
  attr {
    key: "T"
    value {
      type: DT_FLOAT
    }
  }
}
node {
  name: "add_8"
  op: "Add"
  input: "Reshape_21"
  input: "truediv_4"
  attr {
    key: "T"
    value {
      type: DT_FLOAT
    }
  }
}
node {
  name: "add_9"
  op: "Add"
  input: "add_8"
  input: "b_4/read"
  attr {
    key: "T"
    value {
      type: DT_FLOAT
    }
  }
}
node {
  name: "LeakyRelu_4"
  op: "LeakyRelu"
  input: "add_9"
  attr {
    key: "T"
    value {
      type: DT_FLOAT
    }
  }
  attr {
    key: "alpha"
    value {
      f: 0.20000000298023224
    }
  }
}
node {
  name: "flatten/Shape"
  op: "Shape"
  input: "LeakyRelu_4"
  attr {
    key: "T"
    value {
      type: DT_FLOAT
    }
  }
  attr {
    key: "out_type"
    value {
      type: DT_INT32
    }
  }
}
node {
  name: "flatten/strided_slice/stack"
  op: "Const"
  attr {
    key: "dtype"
    value {
      type: DT_INT32
    }
  }
  attr {
    key: "value"
    value {
      tensor {
        dtype: DT_INT32
        tensor_shape {
          dim {
            size: 1
          }
        }
        int_val: 0
      }
    }
  }
}
node {
  name: "flatten/strided_slice/stack_1"
  op: "Const"
  attr {
    key: "dtype"
    value {
      type: DT_INT32
    }
  }
  attr {
    key: "value"
    value {
      tensor {
        dtype: DT_INT32
        tensor_shape {
          dim {
            size: 1
          }
        }
        int_val: 1
      }
    }
  }
}
node {
  name: "flatten/strided_slice/stack_2"
  op: "Const"
  attr {
    key: "dtype"
    value {
      type: DT_INT32
    }
  }
  attr {
    key: "value"
    value {
      tensor {
        dtype: DT_INT32
        tensor_shape {
          dim {
            size: 1
          }
        }
        int_val: 1
      }
    }
  }
}
node {
  name: "flatten/strided_slice"
  op: "StridedSlice"
  input: "flatten/Shape"
  input: "flatten/strided_slice/stack"
  input: "flatten/strided_slice/stack_1"
  input: "flatten/strided_slice/stack_2"
  attr {
    key: "Index"
    value {
      type: DT_INT32
    }
  }
  attr {
    key: "T"
    value {
      type: DT_INT32
    }
  }
  attr {
    key: "begin_mask"
    value {
      i: 0
    }
  }
  attr {
    key: "ellipsis_mask"
    value {
      i: 0
    }
  }
  attr {
    key: "end_mask"
    value {
      i: 0
    }
  }
  attr {
    key: "new_axis_mask"
    value {
      i: 0
    }
  }
  attr {
    key: "shrink_axis_mask"
    value {
      i: 1
    }
  }
}
node {
  name: "flatten/Reshape/shape/1"
  op: "Const"
  attr {
    key: "dtype"
    value {
      type: DT_INT32
    }
  }
  attr {
    key: "value"
    value {
      tensor {
        dtype: DT_INT32
        tensor_shape {
        }
        int_val: -1
      }
    }
  }
}
node {
  name: "flatten/Reshape/shape"
  op: "Pack"
  input: "flatten/strided_slice"
  input: "flatten/Reshape/shape/1"
  attr {
    key: "N"
    value {
      i: 2
    }
  }
  attr {
    key: "T"
    value {
      type: DT_INT32
    }
  }
  attr {
    key: "axis"
    value {
      i: 0
    }
  }
}
node {
  name: "flatten/Reshape"
  op: "Reshape"
  input: "LeakyRelu_4"
  input: "flatten/Reshape/shape"
  attr {
    key: "T"
    value {
      type: DT_FLOAT
    }
  }
  attr {
    key: "Tshape"
    value {
      type: DT_INT32
    }
  }
}
node {
  name: "dense1/kernel/Initializer/random_uniform/shape"
  op: "Const"
  attr {
    key: "_class"
    value {
      list {
        s: "loc:@dense1/kernel"
      }
    }
  }
  attr {
    key: "dtype"
    value {
      type: DT_INT32
    }
  }
  attr {
    key: "value"
    value {
      tensor {
        dtype: DT_INT32
        tensor_shape {
          dim {
            size: 2
          }
        }
        tensor_content: "\000\034\000\000d\000\000\000"
      }
    }
  }
}
node {
  name: "dense1/kernel/Initializer/random_uniform/min"
  op: "Const"
  attr {
    key: "_class"
    value {
      list {
        s: "loc:@dense1/kernel"
      }
    }
  }
  attr {
    key: "dtype"
    value {
      type: DT_FLOAT
    }
  }
  attr {
    key: "value"
    value {
      tensor {
        dtype: DT_FLOAT
        tensor_shape {
        }
        float_val: -0.02873215265572071
      }
    }
  }
}
node {
  name: "dense1/kernel/Initializer/random_uniform/max"
  op: "Const"
  attr {
    key: "_class"
    value {
      list {
        s: "loc:@dense1/kernel"
      }
    }
  }
  attr {
    key: "dtype"
    value {
      type: DT_FLOAT
    }
  }
  attr {
    key: "value"
    value {
      tensor {
        dtype: DT_FLOAT
        tensor_shape {
        }
        float_val: 0.02873215265572071
      }
    }
  }
}
node {
  name: "dense1/kernel/Initializer/random_uniform/RandomUniform"
  op: "RandomUniform"
  input: "dense1/kernel/Initializer/random_uniform/shape"
  attr {
    key: "T"
    value {
      type: DT_INT32
    }
  }
  attr {
    key: "_class"
    value {
      list {
        s: "loc:@dense1/kernel"
      }
    }
  }
  attr {
    key: "dtype"
    value {
      type: DT_FLOAT
    }
  }
  attr {
    key: "seed"
    value {
      i: 7
    }
  }
  attr {
    key: "seed2"
    value {
      i: 321
    }
  }
}
node {
  name: "dense1/kernel/Initializer/random_uniform/sub"
  op: "Sub"
  input: "dense1/kernel/Initializer/random_uniform/max"
  input: "dense1/kernel/Initializer/random_uniform/min"
  attr {
    key: "T"
    value {
      type: DT_FLOAT
    }
  }
  attr {
    key: "_class"
    value {
      list {
        s: "loc:@dense1/kernel"
      }
    }
  }
}
node {
  name: "dense1/kernel/Initializer/random_uniform/mul"
  op: "Mul"
  input: "dense1/kernel/Initializer/random_uniform/RandomUniform"
  input: "dense1/kernel/Initializer/random_uniform/sub"
  attr {
    key: "T"
    value {
      type: DT_FLOAT
    }
  }
  attr {
    key: "_class"
    value {
      list {
        s: "loc:@dense1/kernel"
      }
    }
  }
}
node {
  name: "dense1/kernel/Initializer/random_uniform"
  op: "Add"
  input: "dense1/kernel/Initializer/random_uniform/mul"
  input: "dense1/kernel/Initializer/random_uniform/min"
  attr {
    key: "T"
    value {
      type: DT_FLOAT
    }
  }
  attr {
    key: "_class"
    value {
      list {
        s: "loc:@dense1/kernel"
      }
    }
  }
}
node {
  name: "dense1/kernel"
  op: "VariableV2"
  attr {
    key: "_class"
    value {
      list {
        s: "loc:@dense1/kernel"
      }
    }
  }
  attr {
    key: "container"
    value {
      s: ""
    }
  }
  attr {
    key: "dtype"
    value {
      type: DT_FLOAT
    }
  }
  attr {
    key: "shape"
    value {
      shape {
        dim {
          size: 7168
        }
        dim {
          size: 100
        }
      }
    }
  }
  attr {
    key: "shared_name"
    value {
      s: ""
    }
  }
}
node {
  name: "dense1/kernel/Assign"
  op: "Assign"
  input: "dense1/kernel"
  input: "dense1/kernel/Initializer/random_uniform"
  attr {
    key: "T"
    value {
      type: DT_FLOAT
    }
  }
  attr {
    key: "_class"
    value {
      list {
        s: "loc:@dense1/kernel"
      }
    }
  }
  attr {
    key: "use_locking"
    value {
      b: true
    }
  }
  attr {
    key: "validate_shape"
    value {
      b: true
    }
  }
}
node {
  name: "dense1/kernel/read"
  op: "Identity"
  input: "dense1/kernel"
  attr {
    key: "T"
    value {
      type: DT_FLOAT
    }
  }
  attr {
    key: "_class"
    value {
      list {
        s: "loc:@dense1/kernel"
      }
    }
  }
}
node {
  name: "dense1/bias/Initializer/zeros"
  op: "Const"
  attr {
    key: "_class"
    value {
      list {
        s: "loc:@dense1/bias"
      }
    }
  }
  attr {
    key: "dtype"
    value {
      type: DT_FLOAT
    }
  }
  attr {
    key: "value"
    value {
      tensor {
        dtype: DT_FLOAT
        tensor_shape {
          dim {
            size: 100
          }
        }
        float_val: 0.0
      }
    }
  }
}
node {
  name: "dense1/bias"
  op: "VariableV2"
  attr {
    key: "_class"
    value {
      list {
        s: "loc:@dense1/bias"
      }
    }
  }
  attr {
    key: "container"
    value {
      s: ""
    }
  }
  attr {
    key: "dtype"
    value {
      type: DT_FLOAT
    }
  }
  attr {
    key: "shape"
    value {
      shape {
        dim {
          size: 100
        }
      }
    }
  }
  attr {
    key: "shared_name"
    value {
      s: ""
    }
  }
}
node {
  name: "dense1/bias/Assign"
  op: "Assign"
  input: "dense1/bias"
  input: "dense1/bias/Initializer/zeros"
  attr {
    key: "T"
    value {
      type: DT_FLOAT
    }
  }
  attr {
    key: "_class"
    value {
      list {
        s: "loc:@dense1/bias"
      }
    }
  }
  attr {
    key: "use_locking"
    value {
      b: true
    }
  }
  attr {
    key: "validate_shape"
    value {
      b: true
    }
  }
}
node {
  name: "dense1/bias/read"
  op: "Identity"
  input: "dense1/bias"
  attr {
    key: "T"
    value {
      type: DT_FLOAT
    }
  }
  attr {
    key: "_class"
    value {
      list {
        s: "loc:@dense1/bias"
      }
    }
  }
}
node {
  name: "dense1/MatMul"
  op: "MatMul"
  input: "flatten/Reshape"
  input: "dense1/kernel/read"
  attr {
    key: "T"
    value {
      type: DT_FLOAT
    }
  }
  attr {
    key: "transpose_a"
    value {
      b: false
    }
  }
  attr {
    key: "transpose_b"
    value {
      b: false
    }
  }
}
node {
  name: "dense1/BiasAdd"
  op: "BiasAdd"
  input: "dense1/MatMul"
  input: "dense1/bias/read"
  attr {
    key: "T"
    value {
      type: DT_FLOAT
    }
  }
  attr {
    key: "data_format"
    value {
      s: "NHWC"
    }
  }
}
node {
  name: "dense1/LeakyRelu"
  op: "LeakyRelu"
  input: "dense1/BiasAdd"
  attr {
    key: "T"
    value {
      type: DT_FLOAT
    }
  }
  attr {
    key: "alpha"
    value {
      f: 0.20000000298023224
    }
  }
}
node {
  name: "dropout/cond/Switch"
  op: "Switch"
  input: "training_ph"
  input: "training_ph"
  attr {
    key: "T"
    value {
      type: DT_BOOL
    }
  }
}
node {
  name: "dropout/cond/switch_t"
  op: "Identity"
  input: "dropout/cond/Switch:1"
  attr {
    key: "T"
    value {
      type: DT_BOOL
    }
  }
}
node {
  name: "dropout/cond/switch_f"
  op: "Identity"
  input: "dropout/cond/Switch"
  attr {
    key: "T"
    value {
      type: DT_BOOL
    }
  }
}
node {
  name: "dropout/cond/pred_id"
  op: "Identity"
  input: "training_ph"
  attr {
    key: "T"
    value {
      type: DT_BOOL
    }
  }
}
node {
  name: "dropout/cond/dropout/rate"
  op: "Const"
  input: "^dropout/cond/switch_t"
  attr {
    key: "dtype"
    value {
      type: DT_FLOAT
    }
  }
  attr {
    key: "value"
    value {
      tensor {
        dtype: DT_FLOAT
        tensor_shape {
        }
        float_val: 0.20000000298023224
      }
    }
  }
}
node {
  name: "dropout/cond/dropout/Shape/Switch"
  op: "Switch"
  input: "dense1/LeakyRelu"
  input: "dropout/cond/pred_id"
  attr {
    key: "T"
    value {
      type: DT_FLOAT
    }
  }
  attr {
    key: "_class"
    value {
      list {
        s: "loc:@dense1/LeakyRelu"
      }
    }
  }
}
node {
  name: "dropout/cond/dropout/Shape"
  op: "Shape"
  input: "dropout/cond/dropout/Shape/Switch:1"
  attr {
    key: "T"
    value {
      type: DT_FLOAT
    }
  }
  attr {
    key: "out_type"
    value {
      type: DT_INT32
    }
  }
}
node {
  name: "dropout/cond/dropout/random_uniform/min"
  op: "Const"
  input: "^dropout/cond/switch_t"
  attr {
    key: "dtype"
    value {
      type: DT_FLOAT
    }
  }
  attr {
    key: "value"
    value {
      tensor {
        dtype: DT_FLOAT
        tensor_shape {
        }
        float_val: 0.0
      }
    }
  }
}
node {
  name: "dropout/cond/dropout/random_uniform/max"
  op: "Const"
  input: "^dropout/cond/switch_t"
  attr {
    key: "dtype"
    value {
      type: DT_FLOAT
    }
  }
  attr {
    key: "value"
    value {
      tensor {
        dtype: DT_FLOAT
        tensor_shape {
        }
        float_val: 1.0
      }
    }
  }
}
node {
  name: "dropout/cond/dropout/random_uniform/RandomUniform"
  op: "RandomUniform"
  input: "dropout/cond/dropout/Shape"
  attr {
    key: "T"
    value {
      type: DT_INT32
    }
  }
  attr {
    key: "dtype"
    value {
      type: DT_FLOAT
    }
  }
  attr {
    key: "seed"
    value {
      i: 7
    }
  }
  attr {
    key: "seed2"
    value {
      i: 344
    }
  }
}
node {
  name: "dropout/cond/dropout/random_uniform/sub"
  op: "Sub"
  input: "dropout/cond/dropout/random_uniform/max"
  input: "dropout/cond/dropout/random_uniform/min"
  attr {
    key: "T"
    value {
      type: DT_FLOAT
    }
  }
}
node {
  name: "dropout/cond/dropout/random_uniform/mul"
  op: "Mul"
  input: "dropout/cond/dropout/random_uniform/RandomUniform"
  input: "dropout/cond/dropout/random_uniform/sub"
  attr {
    key: "T"
    value {
      type: DT_FLOAT
    }
  }
}
node {
  name: "dropout/cond/dropout/random_uniform"
  op: "Add"
  input: "dropout/cond/dropout/random_uniform/mul"
  input: "dropout/cond/dropout/random_uniform/min"
  attr {
    key: "T"
    value {
      type: DT_FLOAT
    }
  }
}
node {
  name: "dropout/cond/dropout/sub/x"
  op: "Const"
  input: "^dropout/cond/switch_t"
  attr {
    key: "dtype"
    value {
      type: DT_FLOAT
    }
  }
  attr {
    key: "value"
    value {
      tensor {
        dtype: DT_FLOAT
        tensor_shape {
        }
        float_val: 1.0
      }
    }
  }
}
node {
  name: "dropout/cond/dropout/sub"
  op: "Sub"
  input: "dropout/cond/dropout/sub/x"
  input: "dropout/cond/dropout/rate"
  attr {
    key: "T"
    value {
      type: DT_FLOAT
    }
  }
}
node {
  name: "dropout/cond/dropout/truediv/x"
  op: "Const"
  input: "^dropout/cond/switch_t"
  attr {
    key: "dtype"
    value {
      type: DT_FLOAT
    }
  }
  attr {
    key: "value"
    value {
      tensor {
        dtype: DT_FLOAT
        tensor_shape {
        }
        float_val: 1.0
      }
    }
  }
}
node {
  name: "dropout/cond/dropout/truediv"
  op: "RealDiv"
  input: "dropout/cond/dropout/truediv/x"
  input: "dropout/cond/dropout/sub"
  attr {
    key: "T"
    value {
      type: DT_FLOAT
    }
  }
}
node {
  name: "dropout/cond/dropout/GreaterEqual"
  op: "GreaterEqual"
  input: "dropout/cond/dropout/random_uniform"
  input: "dropout/cond/dropout/rate"
  attr {
    key: "T"
    value {
      type: DT_FLOAT
    }
  }
}
node {
  name: "dropout/cond/dropout/mul"
  op: "Mul"
  input: "dropout/cond/dropout/Shape/Switch:1"
  input: "dropout/cond/dropout/truediv"
  attr {
    key: "T"
    value {
      type: DT_FLOAT
    }
  }
}
node {
  name: "dropout/cond/dropout/Cast"
  op: "Cast"
  input: "dropout/cond/dropout/GreaterEqual"
  attr {
    key: "DstT"
    value {
      type: DT_FLOAT
    }
  }
  attr {
    key: "SrcT"
    value {
      type: DT_BOOL
    }
  }
  attr {
    key: "Truncate"
    value {
      b: false
    }
  }
}
node {
  name: "dropout/cond/dropout/mul_1"
  op: "Mul"
  input: "dropout/cond/dropout/mul"
  input: "dropout/cond/dropout/Cast"
  attr {
    key: "T"
    value {
      type: DT_FLOAT
    }
  }
}
node {
  name: "dropout/cond/Identity/Switch"
  op: "Switch"
  input: "dense1/LeakyRelu"
  input: "dropout/cond/pred_id"
  attr {
    key: "T"
    value {
      type: DT_FLOAT
    }
  }
  attr {
    key: "_class"
    value {
      list {
        s: "loc:@dense1/LeakyRelu"
      }
    }
  }
}
node {
  name: "dropout/cond/Identity"
  op: "Identity"
  input: "dropout/cond/Identity/Switch"
  attr {
    key: "T"
    value {
      type: DT_FLOAT
    }
  }
}
node {
  name: "dropout/cond/Merge"
  op: "Merge"
  input: "dropout/cond/Identity"
  input: "dropout/cond/dropout/mul_1"
  attr {
    key: "N"
    value {
      i: 2
    }
  }
  attr {
    key: "T"
    value {
      type: DT_FLOAT
    }
  }
}
node {
  name: "output/kernel/Initializer/random_uniform/shape"
  op: "Const"
  attr {
    key: "_class"
    value {
      list {
        s: "loc:@output/kernel"
      }
    }
  }
  attr {
    key: "dtype"
    value {
      type: DT_INT32
    }
  }
  attr {
    key: "value"
    value {
      tensor {
        dtype: DT_INT32
        tensor_shape {
          dim {
            size: 2
          }
        }
        tensor_content: "d\000\000\000\001\000\000\000"
      }
    }
  }
}
node {
  name: "output/kernel/Initializer/random_uniform/min"
  op: "Const"
  attr {
    key: "_class"
    value {
      list {
        s: "loc:@output/kernel"
      }
    }
  }
  attr {
    key: "dtype"
    value {
      type: DT_FLOAT
    }
  }
  attr {
    key: "value"
    value {
      tensor {
        dtype: DT_FLOAT
        tensor_shape {
        }
        float_val: -0.24373334646224976
      }
    }
  }
}
node {
  name: "output/kernel/Initializer/random_uniform/max"
  op: "Const"
  attr {
    key: "_class"
    value {
      list {
        s: "loc:@output/kernel"
      }
    }
  }
  attr {
    key: "dtype"
    value {
      type: DT_FLOAT
    }
  }
  attr {
    key: "value"
    value {
      tensor {
        dtype: DT_FLOAT
        tensor_shape {
        }
        float_val: 0.24373334646224976
      }
    }
  }
}
node {
  name: "output/kernel/Initializer/random_uniform/RandomUniform"
  op: "RandomUniform"
  input: "output/kernel/Initializer/random_uniform/shape"
  attr {
    key: "T"
    value {
      type: DT_INT32
    }
  }
  attr {
    key: "_class"
    value {
      list {
        s: "loc:@output/kernel"
      }
    }
  }
  attr {
    key: "dtype"
    value {
      type: DT_FLOAT
    }
  }
  attr {
    key: "seed"
    value {
      i: 7
    }
  }
  attr {
    key: "seed2"
    value {
      i: 362
    }
  }
}
node {
  name: "output/kernel/Initializer/random_uniform/sub"
  op: "Sub"
  input: "output/kernel/Initializer/random_uniform/max"
  input: "output/kernel/Initializer/random_uniform/min"
  attr {
    key: "T"
    value {
      type: DT_FLOAT
    }
  }
  attr {
    key: "_class"
    value {
      list {
        s: "loc:@output/kernel"
      }
    }
  }
}
node {
  name: "output/kernel/Initializer/random_uniform/mul"
  op: "Mul"
  input: "output/kernel/Initializer/random_uniform/RandomUniform"
  input: "output/kernel/Initializer/random_uniform/sub"
  attr {
    key: "T"
    value {
      type: DT_FLOAT
    }
  }
  attr {
    key: "_class"
    value {
      list {
        s: "loc:@output/kernel"
      }
    }
  }
}
node {
  name: "output/kernel/Initializer/random_uniform"
  op: "Add"
  input: "output/kernel/Initializer/random_uniform/mul"
  input: "output/kernel/Initializer/random_uniform/min"
  attr {
    key: "T"
    value {
      type: DT_FLOAT
    }
  }
  attr {
    key: "_class"
    value {
      list {
        s: "loc:@output/kernel"
      }
    }
  }
}
node {
  name: "output/kernel"
  op: "VariableV2"
  attr {
    key: "_class"
    value {
      list {
        s: "loc:@output/kernel"
      }
    }
  }
  attr {
    key: "container"
    value {
      s: ""
    }
  }
  attr {
    key: "dtype"
    value {
      type: DT_FLOAT
    }
  }
  attr {
    key: "shape"
    value {
      shape {
        dim {
          size: 100
        }
        dim {
          size: 1
        }
      }
    }
  }
  attr {
    key: "shared_name"
    value {
      s: ""
    }
  }
}
node {
  name: "output/kernel/Assign"
  op: "Assign"
  input: "output/kernel"
  input: "output/kernel/Initializer/random_uniform"
  attr {
    key: "T"
    value {
      type: DT_FLOAT
    }
  }
  attr {
    key: "_class"
    value {
      list {
        s: "loc:@output/kernel"
      }
    }
  }
  attr {
    key: "use_locking"
    value {
      b: true
    }
  }
  attr {
    key: "validate_shape"
    value {
      b: true
    }
  }
}
node {
  name: "output/kernel/read"
  op: "Identity"
  input: "output/kernel"
  attr {
    key: "T"
    value {
      type: DT_FLOAT
    }
  }
  attr {
    key: "_class"
    value {
      list {
        s: "loc:@output/kernel"
      }
    }
  }
}
node {
  name: "output/bias/Initializer/zeros"
  op: "Const"
  attr {
    key: "_class"
    value {
      list {
        s: "loc:@output/bias"
      }
    }
  }
  attr {
    key: "dtype"
    value {
      type: DT_FLOAT
    }
  }
  attr {
    key: "value"
    value {
      tensor {
        dtype: DT_FLOAT
        tensor_shape {
          dim {
            size: 1
          }
        }
        float_val: 0.0
      }
    }
  }
}
node {
  name: "output/bias"
  op: "VariableV2"
  attr {
    key: "_class"
    value {
      list {
        s: "loc:@output/bias"
      }
    }
  }
  attr {
    key: "container"
    value {
      s: ""
    }
  }
  attr {
    key: "dtype"
    value {
      type: DT_FLOAT
    }
  }
  attr {
    key: "shape"
    value {
      shape {
        dim {
          size: 1
        }
      }
    }
  }
  attr {
    key: "shared_name"
    value {
      s: ""
    }
  }
}
node {
  name: "output/bias/Assign"
  op: "Assign"
  input: "output/bias"
  input: "output/bias/Initializer/zeros"
  attr {
    key: "T"
    value {
      type: DT_FLOAT
    }
  }
  attr {
    key: "_class"
    value {
      list {
        s: "loc:@output/bias"
      }
    }
  }
  attr {
    key: "use_locking"
    value {
      b: true
    }
  }
  attr {
    key: "validate_shape"
    value {
      b: true
    }
  }
}
node {
  name: "output/bias/read"
  op: "Identity"
  input: "output/bias"
  attr {
    key: "T"
    value {
      type: DT_FLOAT
    }
  }
  attr {
    key: "_class"
    value {
      list {
        s: "loc:@output/bias"
      }
    }
  }
}
node {
  name: "output/MatMul"
  op: "MatMul"
  input: "dropout/cond/Merge"
  input: "output/kernel/read"
  attr {
    key: "T"
    value {
      type: DT_FLOAT
    }
  }
  attr {
    key: "transpose_a"
    value {
      b: false
    }
  }
  attr {
    key: "transpose_b"
    value {
      b: false
    }
  }
}
node {
  name: "output/BiasAdd"
  op: "BiasAdd"
  input: "output/MatMul"
  input: "output/bias/read"
  attr {
    key: "T"
    value {
      type: DT_FLOAT
    }
  }
  attr {
    key: "data_format"
    value {
      s: "NHWC"
    }
  }
}
node {
  name: "Squeeze"
  op: "Squeeze"
  input: "output/BiasAdd"
  attr {
    key: "T"
    value {
      type: DT_FLOAT
    }
  }
  attr {
    key: "squeeze_dims"
    value {
      list {
      }
    }
  }
}
node {
  name: "mean_squared_error_1/SquaredDifference"
  op: "SquaredDifference"
  input: "Squeeze"
  input: "scores_placeholder"
  attr {
    key: "T"
    value {
      type: DT_FLOAT
    }
  }
}
node {
  name: "mean_squared_error_1/assert_broadcastable/weights/shape"
  op: "Shape"
  input: "weights_placeholder"
  attr {
    key: "T"
    value {
      type: DT_FLOAT
    }
  }
  attr {
    key: "out_type"
    value {
      type: DT_INT32
    }
  }
}
node {
  name: "mean_squared_error_1/assert_broadcastable/weights/rank"
  op: "Rank"
  input: "weights_placeholder"
  attr {
    key: "T"
    value {
      type: DT_FLOAT
    }
  }
}
node {
  name: "mean_squared_error_1/assert_broadcastable/values/shape"
  op: "Shape"
  input: "mean_squared_error_1/SquaredDifference"
  attr {
    key: "T"
    value {
      type: DT_FLOAT
    }
  }
  attr {
    key: "out_type"
    value {
      type: DT_INT32
    }
  }
}
node {
  name: "mean_squared_error_1/assert_broadcastable/values/rank"
  op: "Rank"
  input: "mean_squared_error_1/SquaredDifference"
  attr {
    key: "T"
    value {
      type: DT_FLOAT
    }
  }
}
node {
  name: "mean_squared_error_1/assert_broadcastable/is_scalar/x"
  op: "Const"
  attr {
    key: "dtype"
    value {
      type: DT_INT32
    }
  }
  attr {
    key: "value"
    value {
      tensor {
        dtype: DT_INT32
        tensor_shape {
        }
        int_val: 0
      }
    }
  }
}
node {
  name: "mean_squared_error_1/assert_broadcastable/is_scalar"
  op: "Equal"
  input: "mean_squared_error_1/assert_broadcastable/is_scalar/x"
  input: "mean_squared_error_1/assert_broadcastable/weights/rank"
  attr {
    key: "T"
    value {
      type: DT_INT32
    }
  }
}
node {
  name: "mean_squared_error_1/assert_broadcastable/is_valid_shape/Switch"
  op: "Switch"
  input: "mean_squared_error_1/assert_broadcastable/is_scalar"
  input: "mean_squared_error_1/assert_broadcastable/is_scalar"
  attr {
    key: "T"
    value {
      type: DT_BOOL
    }
  }
}
node {
  name: "mean_squared_error_1/assert_broadcastable/is_valid_shape/switch_t"
  op: "Identity"
  input: "mean_squared_error_1/assert_broadcastable/is_valid_shape/Switch:1"
  attr {
    key: "T"
    value {
      type: DT_BOOL
    }
  }
}
node {
  name: "mean_squared_error_1/assert_broadcastable/is_valid_shape/switch_f"
  op: "Identity"
  input: "mean_squared_error_1/assert_broadcastable/is_valid_shape/Switch"
  attr {
    key: "T"
    value {
      type: DT_BOOL
    }
  }
}
node {
  name: "mean_squared_error_1/assert_broadcastable/is_valid_shape/pred_id"
  op: "Identity"
  input: "mean_squared_error_1/assert_broadcastable/is_scalar"
  attr {
    key: "T"
    value {
      type: DT_BOOL
    }
  }
}
node {
  name: "mean_squared_error_1/assert_broadcastable/is_valid_shape/Switch_1"
  op: "Switch"
  input: "mean_squared_error_1/assert_broadcastable/is_scalar"
  input: "mean_squared_error_1/assert_broadcastable/is_valid_shape/pred_id"
  attr {
    key: "T"
    value {
      type: DT_BOOL
    }
  }
  attr {
    key: "_class"
    value {
      list {
        s: "loc:@mean_squared_error_1/assert_broadcastable/is_scalar"
      }
    }
  }
}
node {
  name: "mean_squared_error_1/assert_broadcastable/is_valid_shape/has_valid_nonscalar_shape/is_same_rank/Switch"
  op: "Switch"
  input: "mean_squared_error_1/assert_broadcastable/values/rank"
  input: "mean_squared_error_1/assert_broadcastable/is_valid_shape/pred_id"
  attr {
    key: "T"
    value {
      type: DT_INT32
    }
  }
  attr {
    key: "_class"
    value {
      list {
        s: "loc:@mean_squared_error_1/assert_broadcastable/values/rank"
      }
    }
  }
}
node {
  name: "mean_squared_error_1/assert_broadcastable/is_valid_shape/has_valid_nonscalar_shape/is_same_rank/Switch_1"
  op: "Switch"
  input: "mean_squared_error_1/assert_broadcastable/weights/rank"
  input: "mean_squared_error_1/assert_broadcastable/is_valid_shape/pred_id"
  attr {
    key: "T"
    value {
      type: DT_INT32
    }
  }
  attr {
    key: "_class"
    value {
      list {
        s: "loc:@mean_squared_error_1/assert_broadcastable/weights/rank"
      }
    }
  }
}
node {
  name: "mean_squared_error_1/assert_broadcastable/is_valid_shape/has_valid_nonscalar_shape/is_same_rank"
  op: "Equal"
  input: "mean_squared_error_1/assert_broadcastable/is_valid_shape/has_valid_nonscalar_shape/is_same_rank/Switch"
  input: "mean_squared_error_1/assert_broadcastable/is_valid_shape/has_valid_nonscalar_shape/is_same_rank/Switch_1"
  attr {
    key: "T"
    value {
      type: DT_INT32
    }
  }
}
node {
  name: "mean_squared_error_1/assert_broadcastable/is_valid_shape/has_valid_nonscalar_shape/Switch"
  op: "Switch"
  input: "mean_squared_error_1/assert_broadcastable/is_valid_shape/has_valid_nonscalar_shape/is_same_rank"
  input: "mean_squared_error_1/assert_broadcastable/is_valid_shape/has_valid_nonscalar_shape/is_same_rank"
  attr {
    key: "T"
    value {
      type: DT_BOOL
    }
  }
}
node {
  name: "mean_squared_error_1/assert_broadcastable/is_valid_shape/has_valid_nonscalar_shape/switch_t"
  op: "Identity"
  input: "mean_squared_error_1/assert_broadcastable/is_valid_shape/has_valid_nonscalar_shape/Switch:1"
  attr {
    key: "T"
    value {
      type: DT_BOOL
    }
  }
}
node {
  name: "mean_squared_error_1/assert_broadcastable/is_valid_shape/has_valid_nonscalar_shape/switch_f"
  op: "Identity"
  input: "mean_squared_error_1/assert_broadcastable/is_valid_shape/has_valid_nonscalar_shape/Switch"
  attr {
    key: "T"
    value {
      type: DT_BOOL
    }
  }
}
node {
  name: "mean_squared_error_1/assert_broadcastable/is_valid_shape/has_valid_nonscalar_shape/pred_id"
  op: "Identity"
  input: "mean_squared_error_1/assert_broadcastable/is_valid_shape/has_valid_nonscalar_shape/is_same_rank"
  attr {
    key: "T"
    value {
      type: DT_BOOL
    }
  }
}
node {
  name: "mean_squared_error_1/assert_broadcastable/is_valid_shape/has_valid_nonscalar_shape/has_invalid_dims/ExpandDims/dim"
  op: "Const"
  input: "^mean_squared_error_1/assert_broadcastable/is_valid_shape/has_valid_nonscalar_shape/switch_t"
  attr {
    key: "dtype"
    value {
      type: DT_INT32
    }
  }
  attr {
    key: "value"
    value {
      tensor {
        dtype: DT_INT32
        tensor_shape {
        }
        int_val: -1
      }
    }
  }
}
node {
  name: "mean_squared_error_1/assert_broadcastable/is_valid_shape/has_valid_nonscalar_shape/has_invalid_dims/ExpandDims/Switch"
  op: "Switch"
  input: "mean_squared_error_1/assert_broadcastable/values/shape"
  input: "mean_squared_error_1/assert_broadcastable/is_valid_shape/pred_id"
  attr {
    key: "T"
    value {
      type: DT_INT32
    }
  }
  attr {
    key: "_class"
    value {
      list {
        s: "loc:@mean_squared_error_1/assert_broadcastable/values/shape"
      }
    }
  }
}
node {
  name: "mean_squared_error_1/assert_broadcastable/is_valid_shape/has_valid_nonscalar_shape/has_invalid_dims/ExpandDims/Switch_1"
  op: "Switch"
  input: "mean_squared_error_1/assert_broadcastable/is_valid_shape/has_valid_nonscalar_shape/has_invalid_dims/ExpandDims/Switch"
  input: "mean_squared_error_1/assert_broadcastable/is_valid_shape/has_valid_nonscalar_shape/pred_id"
  attr {
    key: "T"
    value {
      type: DT_INT32
    }
  }
  attr {
    key: "_class"
    value {
      list {
        s: "loc:@mean_squared_error_1/assert_broadcastable/values/shape"
      }
    }
  }
}
node {
  name: "mean_squared_error_1/assert_broadcastable/is_valid_shape/has_valid_nonscalar_shape/has_invalid_dims/ExpandDims"
  op: "ExpandDims"
  input: "mean_squared_error_1/assert_broadcastable/is_valid_shape/has_valid_nonscalar_shape/has_invalid_dims/ExpandDims/Switch_1:1"
  input: "mean_squared_error_1/assert_broadcastable/is_valid_shape/has_valid_nonscalar_shape/has_invalid_dims/ExpandDims/dim"
  attr {
    key: "T"
    value {
      type: DT_INT32
    }
  }
  attr {
    key: "Tdim"
    value {
      type: DT_INT32
    }
  }
}
node {
  name: "mean_squared_error_1/assert_broadcastable/is_valid_shape/has_valid_nonscalar_shape/has_invalid_dims/ones_like/Shape"
  op: "Shape"
  input: "mean_squared_error_1/assert_broadcastable/is_valid_shape/has_valid_nonscalar_shape/has_invalid_dims/ExpandDims"
  attr {
    key: "T"
    value {
      type: DT_INT32
    }
  }
  attr {
    key: "out_type"
    value {
      type: DT_INT32
    }
  }
}
node {
  name: "mean_squared_error_1/assert_broadcastable/is_valid_shape/has_valid_nonscalar_shape/has_invalid_dims/ones_like/Const"
  op: "Const"
  input: "^mean_squared_error_1/assert_broadcastable/is_valid_shape/has_valid_nonscalar_shape/switch_t"
  attr {
    key: "dtype"
    value {
      type: DT_INT32
    }
  }
  attr {
    key: "value"
    value {
      tensor {
        dtype: DT_INT32
        tensor_shape {
        }
        int_val: 1
      }
    }
  }
}
node {
  name: "mean_squared_error_1/assert_broadcastable/is_valid_shape/has_valid_nonscalar_shape/has_invalid_dims/ones_like"
  op: "Fill"
  input: "mean_squared_error_1/assert_broadcastable/is_valid_shape/has_valid_nonscalar_shape/has_invalid_dims/ones_like/Shape"
  input: "mean_squared_error_1/assert_broadcastable/is_valid_shape/has_valid_nonscalar_shape/has_invalid_dims/ones_like/Const"
  attr {
    key: "T"
    value {
      type: DT_INT32
    }
  }
  attr {
    key: "index_type"
    value {
      type: DT_INT32
    }
  }
}
node {
  name: "mean_squared_error_1/assert_broadcastable/is_valid_shape/has_valid_nonscalar_shape/has_invalid_dims/concat/axis"
  op: "Const"
  input: "^mean_squared_error_1/assert_broadcastable/is_valid_shape/has_valid_nonscalar_shape/switch_t"
  attr {
    key: "dtype"
    value {
      type: DT_INT32
    }
  }
  attr {
    key: "value"
    value {
      tensor {
        dtype: DT_INT32
        tensor_shape {
        }
        int_val: 1
      }
    }
  }
}
node {
  name: "mean_squared_error_1/assert_broadcastable/is_valid_shape/has_valid_nonscalar_shape/has_invalid_dims/concat"
  op: "ConcatV2"
  input: "mean_squared_error_1/assert_broadcastable/is_valid_shape/has_valid_nonscalar_shape/has_invalid_dims/ExpandDims"
  input: "mean_squared_error_1/assert_broadcastable/is_valid_shape/has_valid_nonscalar_shape/has_invalid_dims/ones_like"
  input: "mean_squared_error_1/assert_broadcastable/is_valid_shape/has_valid_nonscalar_shape/has_invalid_dims/concat/axis"
  attr {
    key: "N"
    value {
      i: 2
    }
  }
  attr {
    key: "T"
    value {
      type: DT_INT32
    }
  }
  attr {
    key: "Tidx"
    value {
      type: DT_INT32
    }
  }
}
node {
  name: "mean_squared_error_1/assert_broadcastable/is_valid_shape/has_valid_nonscalar_shape/has_invalid_dims/ExpandDims_1/dim"
  op: "Const"
  input: "^mean_squared_error_1/assert_broadcastable/is_valid_shape/has_valid_nonscalar_shape/switch_t"
  attr {
    key: "dtype"
    value {
      type: DT_INT32
    }
  }
  attr {
    key: "value"
    value {
      tensor {
        dtype: DT_INT32
        tensor_shape {
        }
        int_val: -1
      }
    }
  }
}
node {
  name: "mean_squared_error_1/assert_broadcastable/is_valid_shape/has_valid_nonscalar_shape/has_invalid_dims/ExpandDims_1/Switch"
  op: "Switch"
  input: "mean_squared_error_1/assert_broadcastable/weights/shape"
  input: "mean_squared_error_1/assert_broadcastable/is_valid_shape/pred_id"
  attr {
    key: "T"
    value {
      type: DT_INT32
    }
  }
  attr {
    key: "_class"
    value {
      list {
        s: "loc:@mean_squared_error_1/assert_broadcastable/weights/shape"
      }
    }
  }
}
node {
  name: "mean_squared_error_1/assert_broadcastable/is_valid_shape/has_valid_nonscalar_shape/has_invalid_dims/ExpandDims_1/Switch_1"
  op: "Switch"
  input: "mean_squared_error_1/assert_broadcastable/is_valid_shape/has_valid_nonscalar_shape/has_invalid_dims/ExpandDims_1/Switch"
  input: "mean_squared_error_1/assert_broadcastable/is_valid_shape/has_valid_nonscalar_shape/pred_id"
  attr {
    key: "T"
    value {
      type: DT_INT32
    }
  }
  attr {
    key: "_class"
    value {
      list {
        s: "loc:@mean_squared_error_1/assert_broadcastable/weights/shape"
      }
    }
  }
}
node {
  name: "mean_squared_error_1/assert_broadcastable/is_valid_shape/has_valid_nonscalar_shape/has_invalid_dims/ExpandDims_1"
  op: "ExpandDims"
  input: "mean_squared_error_1/assert_broadcastable/is_valid_shape/has_valid_nonscalar_shape/has_invalid_dims/ExpandDims_1/Switch_1:1"
  input: "mean_squared_error_1/assert_broadcastable/is_valid_shape/has_valid_nonscalar_shape/has_invalid_dims/ExpandDims_1/dim"
  attr {
    key: "T"
    value {
      type: DT_INT32
    }
  }
  attr {
    key: "Tdim"
    value {
      type: DT_INT32
    }
  }
}
node {
  name: "mean_squared_error_1/assert_broadcastable/is_valid_shape/has_valid_nonscalar_shape/has_invalid_dims/DenseToDenseSetOperation"
  op: "DenseToDenseSetOperation"
  input: "mean_squared_error_1/assert_broadcastable/is_valid_shape/has_valid_nonscalar_shape/has_invalid_dims/ExpandDims_1"
  input: "mean_squared_error_1/assert_broadcastable/is_valid_shape/has_valid_nonscalar_shape/has_invalid_dims/concat"
  attr {
    key: "T"
    value {
      type: DT_INT32
    }
  }
  attr {
    key: "set_operation"
    value {
      s: "a-b"
    }
  }
  attr {
    key: "validate_indices"
    value {
      b: true
    }
  }
}
node {
  name: "mean_squared_error_1/assert_broadcastable/is_valid_shape/has_valid_nonscalar_shape/has_invalid_dims/num_invalid_dims"
  op: "Size"
  input: "mean_squared_error_1/assert_broadcastable/is_valid_shape/has_valid_nonscalar_shape/has_invalid_dims/DenseToDenseSetOperation:1"
  attr {
    key: "T"
    value {
      type: DT_INT32
    }
  }
  attr {
    key: "out_type"
    value {
      type: DT_INT32
    }
  }
}
node {
  name: "mean_squared_error_1/assert_broadcastable/is_valid_shape/has_valid_nonscalar_shape/has_invalid_dims/x"
  op: "Const"
  input: "^mean_squared_error_1/assert_broadcastable/is_valid_shape/has_valid_nonscalar_shape/switch_t"
  attr {
    key: "dtype"
    value {
      type: DT_INT32
    }
  }
  attr {
    key: "value"
    value {
      tensor {
        dtype: DT_INT32
        tensor_shape {
        }
        int_val: 0
      }
    }
  }
}
node {
  name: "mean_squared_error_1/assert_broadcastable/is_valid_shape/has_valid_nonscalar_shape/has_invalid_dims"
  op: "Equal"
  input: "mean_squared_error_1/assert_broadcastable/is_valid_shape/has_valid_nonscalar_shape/has_invalid_dims/x"
  input: "mean_squared_error_1/assert_broadcastable/is_valid_shape/has_valid_nonscalar_shape/has_invalid_dims/num_invalid_dims"
  attr {
    key: "T"
    value {
      type: DT_INT32
    }
  }
}
node {
  name: "mean_squared_error_1/assert_broadcastable/is_valid_shape/has_valid_nonscalar_shape/Switch_1"
  op: "Switch"
  input: "mean_squared_error_1/assert_broadcastable/is_valid_shape/has_valid_nonscalar_shape/is_same_rank"
  input: "mean_squared_error_1/assert_broadcastable/is_valid_shape/has_valid_nonscalar_shape/pred_id"
  attr {
    key: "T"
    value {
      type: DT_BOOL
    }
  }
  attr {
    key: "_class"
    value {
      list {
        s: "loc:@mean_squared_error_1/assert_broadcastable/is_valid_shape/has_valid_nonscalar_shape/is_same_rank"
      }
    }
  }
}
node {
  name: "mean_squared_error_1/assert_broadcastable/is_valid_shape/has_valid_nonscalar_shape/Merge"
  op: "Merge"
  input: "mean_squared_error_1/assert_broadcastable/is_valid_shape/has_valid_nonscalar_shape/Switch_1"
  input: "mean_squared_error_1/assert_broadcastable/is_valid_shape/has_valid_nonscalar_shape/has_invalid_dims"
  attr {
    key: "N"
    value {
      i: 2
    }
  }
  attr {
    key: "T"
    value {
      type: DT_BOOL
    }
  }
}
node {
  name: "mean_squared_error_1/assert_broadcastable/is_valid_shape/Merge"
  op: "Merge"
  input: "mean_squared_error_1/assert_broadcastable/is_valid_shape/has_valid_nonscalar_shape/Merge"
  input: "mean_squared_error_1/assert_broadcastable/is_valid_shape/Switch_1:1"
  attr {
    key: "N"
    value {
      i: 2
    }
  }
  attr {
    key: "T"
    value {
      type: DT_BOOL
    }
  }
}
node {
  name: "mean_squared_error_1/assert_broadcastable/Const"
  op: "Const"
  attr {
    key: "dtype"
    value {
      type: DT_STRING
    }
  }
  attr {
    key: "value"
    value {
      tensor {
        dtype: DT_STRING
        tensor_shape {
        }
        string_val: "weights can not be broadcast to values."
      }
    }
  }
}
node {
  name: "mean_squared_error_1/assert_broadcastable/Const_1"
  op: "Const"
  attr {
    key: "dtype"
    value {
      type: DT_STRING
    }
  }
  attr {
    key: "value"
    value {
      tensor {
        dtype: DT_STRING
        tensor_shape {
        }
        string_val: "weights.shape="
      }
    }
  }
}
node {
  name: "mean_squared_error_1/assert_broadcastable/Const_2"
  op: "Const"
  attr {
    key: "dtype"
    value {
      type: DT_STRING
    }
  }
  attr {
    key: "value"
    value {
      tensor {
        dtype: DT_STRING
        tensor_shape {
        }
        string_val: "weights_placeholder:0"
      }
    }
  }
}
node {
  name: "mean_squared_error_1/assert_broadcastable/Const_3"
  op: "Const"
  attr {
    key: "dtype"
    value {
      type: DT_STRING
    }
  }
  attr {
    key: "value"
    value {
      tensor {
        dtype: DT_STRING
        tensor_shape {
        }
        string_val: "values.shape="
      }
    }
  }
}
node {
  name: "mean_squared_error_1/assert_broadcastable/Const_4"
  op: "Const"
  attr {
    key: "dtype"
    value {
      type: DT_STRING
    }
  }
  attr {
    key: "value"
    value {
      tensor {
        dtype: DT_STRING
        tensor_shape {
        }
        string_val: "mean_squared_error_1/SquaredDifference:0"
      }
    }
  }
}
node {
  name: "mean_squared_error_1/assert_broadcastable/Const_5"
  op: "Const"
  attr {
    key: "dtype"
    value {
      type: DT_STRING
    }
  }
  attr {
    key: "value"
    value {
      tensor {
        dtype: DT_STRING
        tensor_shape {
        }
        string_val: "is_scalar="
      }
    }
  }
}
node {
  name: "mean_squared_error_1/assert_broadcastable/AssertGuard/Switch"
  op: "Switch"
  input: "mean_squared_error_1/assert_broadcastable/is_valid_shape/Merge"
  input: "mean_squared_error_1/assert_broadcastable/is_valid_shape/Merge"
  attr {
    key: "T"
    value {
      type: DT_BOOL
    }
  }
}
node {
  name: "mean_squared_error_1/assert_broadcastable/AssertGuard/switch_t"
  op: "Identity"
  input: "mean_squared_error_1/assert_broadcastable/AssertGuard/Switch:1"
  attr {
    key: "T"
    value {
      type: DT_BOOL
    }
  }
}
node {
  name: "mean_squared_error_1/assert_broadcastable/AssertGuard/switch_f"
  op: "Identity"
  input: "mean_squared_error_1/assert_broadcastable/AssertGuard/Switch"
  attr {
    key: "T"
    value {
      type: DT_BOOL
    }
  }
}
node {
  name: "mean_squared_error_1/assert_broadcastable/AssertGuard/pred_id"
  op: "Identity"
  input: "mean_squared_error_1/assert_broadcastable/is_valid_shape/Merge"
  attr {
    key: "T"
    value {
      type: DT_BOOL
    }
  }
}
node {
  name: "mean_squared_error_1/assert_broadcastable/AssertGuard/NoOp"
  op: "NoOp"
  input: "^mean_squared_error_1/assert_broadcastable/AssertGuard/switch_t"
}
node {
  name: "mean_squared_error_1/assert_broadcastable/AssertGuard/control_dependency"
  op: "Identity"
  input: "mean_squared_error_1/assert_broadcastable/AssertGuard/switch_t"
  input: "^mean_squared_error_1/assert_broadcastable/AssertGuard/NoOp"
  attr {
    key: "T"
    value {
      type: DT_BOOL
    }
  }
  attr {
    key: "_class"
    value {
      list {
        s: "loc:@mean_squared_error_1/assert_broadcastable/AssertGuard/switch_t"
      }
    }
  }
}
node {
  name: "mean_squared_error_1/assert_broadcastable/AssertGuard/Assert/data_0"
  op: "Const"
  input: "^mean_squared_error_1/assert_broadcastable/AssertGuard/switch_f"
  attr {
    key: "dtype"
    value {
      type: DT_STRING
    }
  }
  attr {
    key: "value"
    value {
      tensor {
        dtype: DT_STRING
        tensor_shape {
        }
        string_val: "weights can not be broadcast to values."
      }
    }
  }
}
node {
  name: "mean_squared_error_1/assert_broadcastable/AssertGuard/Assert/data_1"
  op: "Const"
  input: "^mean_squared_error_1/assert_broadcastable/AssertGuard/switch_f"
  attr {
    key: "dtype"
    value {
      type: DT_STRING
    }
  }
  attr {
    key: "value"
    value {
      tensor {
        dtype: DT_STRING
        tensor_shape {
        }
        string_val: "weights.shape="
      }
    }
  }
}
node {
  name: "mean_squared_error_1/assert_broadcastable/AssertGuard/Assert/data_2"
  op: "Const"
  input: "^mean_squared_error_1/assert_broadcastable/AssertGuard/switch_f"
  attr {
    key: "dtype"
    value {
      type: DT_STRING
    }
  }
  attr {
    key: "value"
    value {
      tensor {
        dtype: DT_STRING
        tensor_shape {
        }
        string_val: "weights_placeholder:0"
      }
    }
  }
}
node {
  name: "mean_squared_error_1/assert_broadcastable/AssertGuard/Assert/data_4"
  op: "Const"
  input: "^mean_squared_error_1/assert_broadcastable/AssertGuard/switch_f"
  attr {
    key: "dtype"
    value {
      type: DT_STRING
    }
  }
  attr {
    key: "value"
    value {
      tensor {
        dtype: DT_STRING
        tensor_shape {
        }
        string_val: "values.shape="
      }
    }
  }
}
node {
  name: "mean_squared_error_1/assert_broadcastable/AssertGuard/Assert/data_5"
  op: "Const"
  input: "^mean_squared_error_1/assert_broadcastable/AssertGuard/switch_f"
  attr {
    key: "dtype"
    value {
      type: DT_STRING
    }
  }
  attr {
    key: "value"
    value {
      tensor {
        dtype: DT_STRING
        tensor_shape {
        }
        string_val: "mean_squared_error_1/SquaredDifference:0"
      }
    }
  }
}
node {
  name: "mean_squared_error_1/assert_broadcastable/AssertGuard/Assert/data_7"
  op: "Const"
  input: "^mean_squared_error_1/assert_broadcastable/AssertGuard/switch_f"
  attr {
    key: "dtype"
    value {
      type: DT_STRING
    }
  }
  attr {
    key: "value"
    value {
      tensor {
        dtype: DT_STRING
        tensor_shape {
        }
        string_val: "is_scalar="
      }
    }
  }
}
node {
  name: "mean_squared_error_1/assert_broadcastable/AssertGuard/Assert/Switch"
  op: "Switch"
  input: "mean_squared_error_1/assert_broadcastable/is_valid_shape/Merge"
  input: "mean_squared_error_1/assert_broadcastable/AssertGuard/pred_id"
  attr {
    key: "T"
    value {
      type: DT_BOOL
    }
  }
  attr {
    key: "_class"
    value {
      list {
        s: "loc:@mean_squared_error_1/assert_broadcastable/is_valid_shape/Merge"
      }
    }
  }
}
node {
  name: "mean_squared_error_1/assert_broadcastable/AssertGuard/Assert/Switch_1"
  op: "Switch"
  input: "mean_squared_error_1/assert_broadcastable/weights/shape"
  input: "mean_squared_error_1/assert_broadcastable/AssertGuard/pred_id"
  attr {
    key: "T"
    value {
      type: DT_INT32
    }
  }
  attr {
    key: "_class"
    value {
      list {
        s: "loc:@mean_squared_error_1/assert_broadcastable/weights/shape"
      }
    }
  }
}
node {
  name: "mean_squared_error_1/assert_broadcastable/AssertGuard/Assert/Switch_2"
  op: "Switch"
  input: "mean_squared_error_1/assert_broadcastable/values/shape"
  input: "mean_squared_error_1/assert_broadcastable/AssertGuard/pred_id"
  attr {
    key: "T"
    value {
      type: DT_INT32
    }
  }
  attr {
    key: "_class"
    value {
      list {
        s: "loc:@mean_squared_error_1/assert_broadcastable/values/shape"
      }
    }
  }
}
node {
  name: "mean_squared_error_1/assert_broadcastable/AssertGuard/Assert/Switch_3"
  op: "Switch"
  input: "mean_squared_error_1/assert_broadcastable/is_scalar"
  input: "mean_squared_error_1/assert_broadcastable/AssertGuard/pred_id"
  attr {
    key: "T"
    value {
      type: DT_BOOL
    }
  }
  attr {
    key: "_class"
    value {
      list {
        s: "loc:@mean_squared_error_1/assert_broadcastable/is_scalar"
      }
    }
  }
}
node {
  name: "mean_squared_error_1/assert_broadcastable/AssertGuard/Assert"
  op: "Assert"
  input: "mean_squared_error_1/assert_broadcastable/AssertGuard/Assert/Switch"
  input: "mean_squared_error_1/assert_broadcastable/AssertGuard/Assert/data_0"
  input: "mean_squared_error_1/assert_broadcastable/AssertGuard/Assert/data_1"
  input: "mean_squared_error_1/assert_broadcastable/AssertGuard/Assert/data_2"
  input: "mean_squared_error_1/assert_broadcastable/AssertGuard/Assert/Switch_1"
  input: "mean_squared_error_1/assert_broadcastable/AssertGuard/Assert/data_4"
  input: "mean_squared_error_1/assert_broadcastable/AssertGuard/Assert/data_5"
  input: "mean_squared_error_1/assert_broadcastable/AssertGuard/Assert/Switch_2"
  input: "mean_squared_error_1/assert_broadcastable/AssertGuard/Assert/data_7"
  input: "mean_squared_error_1/assert_broadcastable/AssertGuard/Assert/Switch_3"
  attr {
    key: "T"
    value {
      list {
        type: DT_STRING
        type: DT_STRING
        type: DT_STRING
        type: DT_INT32
        type: DT_STRING
        type: DT_STRING
        type: DT_INT32
        type: DT_STRING
        type: DT_BOOL
      }
    }
  }
  attr {
    key: "summarize"
    value {
      i: 3
    }
  }
}
node {
  name: "mean_squared_error_1/assert_broadcastable/AssertGuard/control_dependency_1"
  op: "Identity"
  input: "mean_squared_error_1/assert_broadcastable/AssertGuard/switch_f"
  input: "^mean_squared_error_1/assert_broadcastable/AssertGuard/Assert"
  attr {
    key: "T"
    value {
      type: DT_BOOL
    }
  }
  attr {
    key: "_class"
    value {
      list {
        s: "loc:@mean_squared_error_1/assert_broadcastable/AssertGuard/switch_f"
      }
    }
  }
}
node {
  name: "mean_squared_error_1/assert_broadcastable/AssertGuard/Merge"
  op: "Merge"
  input: "mean_squared_error_1/assert_broadcastable/AssertGuard/control_dependency_1"
  input: "mean_squared_error_1/assert_broadcastable/AssertGuard/control_dependency"
  attr {
    key: "N"
    value {
      i: 2
    }
  }
  attr {
    key: "T"
    value {
      type: DT_BOOL
    }
  }
}
node {
  name: "mean_squared_error_1/Mul"
  op: "Mul"
  input: "mean_squared_error_1/SquaredDifference"
  input: "weights_placeholder"
  input: "^mean_squared_error_1/assert_broadcastable/AssertGuard/Merge"
  attr {
    key: "T"
    value {
      type: DT_FLOAT
    }
  }
}
node {
  name: "mean_squared_error_1/Rank"
  op: "Rank"
  input: "mean_squared_error_1/Mul"
  attr {
    key: "T"
    value {
      type: DT_FLOAT
    }
  }
}
node {
  name: "mean_squared_error_1/range/start"
  op: "Const"
  input: "^mean_squared_error_1/assert_broadcastable/AssertGuard/Merge"
  attr {
    key: "dtype"
    value {
      type: DT_INT32
    }
  }
  attr {
    key: "value"
    value {
      tensor {
        dtype: DT_INT32
        tensor_shape {
        }
        int_val: 0
      }
    }
  }
}
node {
  name: "mean_squared_error_1/range/delta"
  op: "Const"
  input: "^mean_squared_error_1/assert_broadcastable/AssertGuard/Merge"
  attr {
    key: "dtype"
    value {
      type: DT_INT32
    }
  }
  attr {
    key: "value"
    value {
      tensor {
        dtype: DT_INT32
        tensor_shape {
        }
        int_val: 1
      }
    }
  }
}
node {
  name: "mean_squared_error_1/range"
  op: "Range"
  input: "mean_squared_error_1/range/start"
  input: "mean_squared_error_1/Rank"
  input: "mean_squared_error_1/range/delta"
  attr {
    key: "Tidx"
    value {
      type: DT_INT32
    }
  }
}
node {
  name: "mean_squared_error_1/Sum"
  op: "Sum"
  input: "mean_squared_error_1/Mul"
  input: "mean_squared_error_1/range"
  attr {
    key: "T"
    value {
      type: DT_FLOAT
    }
  }
  attr {
    key: "Tidx"
    value {
      type: DT_INT32
    }
  }
  attr {
    key: "keep_dims"
    value {
      b: false
    }
  }
}
node {
  name: "mean_squared_error_1/ones_like/Shape"
  op: "Shape"
  input: "mean_squared_error_1/SquaredDifference"
  input: "^mean_squared_error_1/assert_broadcastable/AssertGuard/Merge"
  attr {
    key: "T"
    value {
      type: DT_FLOAT
    }
  }
  attr {
    key: "out_type"
    value {
      type: DT_INT32
    }
  }
}
node {
  name: "mean_squared_error_1/ones_like/Const"
  op: "Const"
  input: "^mean_squared_error_1/assert_broadcastable/AssertGuard/Merge"
  attr {
    key: "dtype"
    value {
      type: DT_FLOAT
    }
  }
  attr {
    key: "value"
    value {
      tensor {
        dtype: DT_FLOAT
        tensor_shape {
        }
        float_val: 1.0
      }
    }
  }
}
node {
  name: "mean_squared_error_1/ones_like"
  op: "Fill"
  input: "mean_squared_error_1/ones_like/Shape"
  input: "mean_squared_error_1/ones_like/Const"
  attr {
    key: "T"
    value {
      type: DT_FLOAT
    }
  }
  attr {
    key: "index_type"
    value {
      type: DT_INT32
    }
  }
}
node {
  name: "mean_squared_error_1/mul_1"
  op: "Mul"
  input: "mean_squared_error_1/ones_like"
  input: "weights_placeholder"
  attr {
    key: "T"
    value {
      type: DT_FLOAT
    }
  }
}
node {
  name: "mean_squared_error_1/Rank_1"
  op: "Rank"
  input: "mean_squared_error_1/mul_1"
  attr {
    key: "T"
    value {
      type: DT_FLOAT
    }
  }
}
node {
  name: "mean_squared_error_1/range_1/start"
  op: "Const"
  input: "^mean_squared_error_1/assert_broadcastable/AssertGuard/Merge"
  attr {
    key: "dtype"
    value {
      type: DT_INT32
    }
  }
  attr {
    key: "value"
    value {
      tensor {
        dtype: DT_INT32
        tensor_shape {
        }
        int_val: 0
      }
    }
  }
}
node {
  name: "mean_squared_error_1/range_1/delta"
  op: "Const"
  input: "^mean_squared_error_1/assert_broadcastable/AssertGuard/Merge"
  attr {
    key: "dtype"
    value {
      type: DT_INT32
    }
  }
  attr {
    key: "value"
    value {
      tensor {
        dtype: DT_INT32
        tensor_shape {
        }
        int_val: 1
      }
    }
  }
}
node {
  name: "mean_squared_error_1/range_1"
  op: "Range"
  input: "mean_squared_error_1/range_1/start"
  input: "mean_squared_error_1/Rank_1"
  input: "mean_squared_error_1/range_1/delta"
  attr {
    key: "Tidx"
    value {
      type: DT_INT32
    }
  }
}
node {
  name: "mean_squared_error_1/Sum_1"
  op: "Sum"
  input: "mean_squared_error_1/mul_1"
  input: "mean_squared_error_1/range_1"
  attr {
    key: "T"
    value {
      type: DT_FLOAT
    }
  }
  attr {
    key: "Tidx"
    value {
      type: DT_INT32
    }
  }
  attr {
    key: "keep_dims"
    value {
      b: false
    }
  }
}
node {
  name: "mean_squared_error_1/Const"
  op: "Const"
  input: "^mean_squared_error_1/assert_broadcastable/AssertGuard/Merge"
  attr {
    key: "dtype"
    value {
      type: DT_INT32
    }
  }
  attr {
    key: "value"
    value {
      tensor {
        dtype: DT_INT32
        tensor_shape {
          dim {
          }
        }
      }
    }
  }
}
node {
  name: "mean_squared_error_1/Sum_2"
  op: "Sum"
  input: "mean_squared_error_1/Sum"
  input: "mean_squared_error_1/Const"
  attr {
    key: "T"
    value {
      type: DT_FLOAT
    }
  }
  attr {
    key: "Tidx"
    value {
      type: DT_INT32
    }
  }
  attr {
    key: "keep_dims"
    value {
      b: false
    }
  }
}
node {
  name: "mean_squared_error_1/value"
  op: "DivNoNan"
  input: "mean_squared_error_1/Sum_2"
  input: "mean_squared_error_1/Sum_1"
  attr {
    key: "T"
    value {
      type: DT_FLOAT
    }
  }
}
node {
  name: "global_step/initial_value"
  op: "Const"
  attr {
    key: "dtype"
    value {
      type: DT_INT32
    }
  }
  attr {
    key: "value"
    value {
      tensor {
        dtype: DT_INT32
        tensor_shape {
        }
        int_val: 0
      }
    }
  }
}
node {
  name: "global_step"
  op: "VariableV2"
  attr {
    key: "container"
    value {
      s: ""
    }
  }
  attr {
    key: "dtype"
    value {
      type: DT_INT32
    }
  }
  attr {
    key: "shape"
    value {
      shape {
      }
    }
  }
  attr {
    key: "shared_name"
    value {
      s: ""
    }
  }
}
node {
  name: "global_step/Assign"
  op: "Assign"
  input: "global_step"
  input: "global_step/initial_value"
  attr {
    key: "T"
    value {
      type: DT_INT32
    }
  }
  attr {
    key: "_class"
    value {
      list {
        s: "loc:@global_step"
      }
    }
  }
  attr {
    key: "use_locking"
    value {
      b: true
    }
  }
  attr {
    key: "validate_shape"
    value {
      b: true
    }
  }
}
node {
  name: "global_step/read"
  op: "Identity"
  input: "global_step"
  attr {
    key: "T"
    value {
      type: DT_INT32
    }
  }
  attr {
    key: "_class"
    value {
      list {
        s: "loc:@global_step"
      }
    }
  }
}
node {
  name: "gradients/Shape"
  op: "Const"
  attr {
    key: "dtype"
    value {
      type: DT_INT32
    }
  }
  attr {
    key: "value"
    value {
      tensor {
        dtype: DT_INT32
        tensor_shape {
          dim {
          }
        }
      }
    }
  }
}
node {
  name: "gradients/grad_ys_0"
  op: "Const"
  attr {
    key: "dtype"
    value {
      type: DT_FLOAT
    }
  }
  attr {
    key: "value"
    value {
      tensor {
        dtype: DT_FLOAT
        tensor_shape {
        }
        float_val: 1.0
      }
    }
  }
}
node {
  name: "gradients/Fill"
  op: "Fill"
  input: "gradients/Shape"
  input: "gradients/grad_ys_0"
  attr {
    key: "T"
    value {
      type: DT_FLOAT
    }
  }
  attr {
    key: "index_type"
    value {
      type: DT_INT32
    }
  }
}
node {
  name: "gradients/mean_squared_error_1/value_grad/Shape"
  op: "Const"
  attr {
    key: "dtype"
    value {
      type: DT_INT32
    }
  }
  attr {
    key: "value"
    value {
      tensor {
        dtype: DT_INT32
        tensor_shape {
          dim {
          }
        }
      }
    }
  }
}
node {
  name: "gradients/mean_squared_error_1/value_grad/Shape_1"
  op: "Const"
  attr {
    key: "dtype"
    value {
      type: DT_INT32
    }
  }
  attr {
    key: "value"
    value {
      tensor {
        dtype: DT_INT32
        tensor_shape {
          dim {
          }
        }
      }
    }
  }
}
node {
  name: "gradients/mean_squared_error_1/value_grad/BroadcastGradientArgs"
  op: "BroadcastGradientArgs"
  input: "gradients/mean_squared_error_1/value_grad/Shape"
  input: "gradients/mean_squared_error_1/value_grad/Shape_1"
  attr {
    key: "T"
    value {
      type: DT_INT32
    }
  }
}
node {
  name: "gradients/mean_squared_error_1/value_grad/div_no_nan"
  op: "DivNoNan"
  input: "gradients/Fill"
  input: "mean_squared_error_1/Sum_1"
  attr {
    key: "T"
    value {
      type: DT_FLOAT
    }
  }
}
node {
  name: "gradients/mean_squared_error_1/value_grad/Sum"
  op: "Sum"
  input: "gradients/mean_squared_error_1/value_grad/div_no_nan"
  input: "gradients/mean_squared_error_1/value_grad/BroadcastGradientArgs"
  attr {
    key: "T"
    value {
      type: DT_FLOAT
    }
  }
  attr {
    key: "Tidx"
    value {
      type: DT_INT32
    }
  }
  attr {
    key: "keep_dims"
    value {
      b: false
    }
  }
}
node {
  name: "gradients/mean_squared_error_1/value_grad/Reshape"
  op: "Reshape"
  input: "gradients/mean_squared_error_1/value_grad/Sum"
  input: "gradients/mean_squared_error_1/value_grad/Shape"
  attr {
    key: "T"
    value {
      type: DT_FLOAT
    }
  }
  attr {
    key: "Tshape"
    value {
      type: DT_INT32
    }
  }
}
node {
  name: "gradients/mean_squared_error_1/value_grad/Neg"
  op: "Neg"
  input: "mean_squared_error_1/Sum_2"
  attr {
    key: "T"
    value {
      type: DT_FLOAT
    }
  }
}
node {
  name: "gradients/mean_squared_error_1/value_grad/div_no_nan_1"
  op: "DivNoNan"
  input: "gradients/mean_squared_error_1/value_grad/Neg"
  input: "mean_squared_error_1/Sum_1"
  attr {
    key: "T"
    value {
      type: DT_FLOAT
    }
  }
}
node {
  name: "gradients/mean_squared_error_1/value_grad/div_no_nan_2"
  op: "DivNoNan"
  input: "gradients/mean_squared_error_1/value_grad/div_no_nan_1"
  input: "mean_squared_error_1/Sum_1"
  attr {
    key: "T"
    value {
      type: DT_FLOAT
    }
  }
}
node {
  name: "gradients/mean_squared_error_1/value_grad/mul"
  op: "Mul"
  input: "gradients/Fill"
  input: "gradients/mean_squared_error_1/value_grad/div_no_nan_2"
  attr {
    key: "T"
    value {
      type: DT_FLOAT
    }
  }
}
node {
  name: "gradients/mean_squared_error_1/value_grad/Sum_1"
  op: "Sum"
  input: "gradients/mean_squared_error_1/value_grad/mul"
  input: "gradients/mean_squared_error_1/value_grad/BroadcastGradientArgs:1"
  attr {
    key: "T"
    value {
      type: DT_FLOAT
    }
  }
  attr {
    key: "Tidx"
    value {
      type: DT_INT32
    }
  }
  attr {
    key: "keep_dims"
    value {
      b: false
    }
  }
}
node {
  name: "gradients/mean_squared_error_1/value_grad/Reshape_1"
  op: "Reshape"
  input: "gradients/mean_squared_error_1/value_grad/Sum_1"
  input: "gradients/mean_squared_error_1/value_grad/Shape_1"
  attr {
    key: "T"
    value {
      type: DT_FLOAT
    }
  }
  attr {
    key: "Tshape"
    value {
      type: DT_INT32
    }
  }
}
node {
  name: "gradients/mean_squared_error_1/value_grad/tuple/group_deps"
  op: "NoOp"
  input: "^gradients/mean_squared_error_1/value_grad/Reshape"
  input: "^gradients/mean_squared_error_1/value_grad/Reshape_1"
}
node {
  name: "gradients/mean_squared_error_1/value_grad/tuple/control_dependency"
  op: "Identity"
  input: "gradients/mean_squared_error_1/value_grad/Reshape"
  input: "^gradients/mean_squared_error_1/value_grad/tuple/group_deps"
  attr {
    key: "T"
    value {
      type: DT_FLOAT
    }
  }
  attr {
    key: "_class"
    value {
      list {
        s: "loc:@gradients/mean_squared_error_1/value_grad/Reshape"
      }
    }
  }
}
node {
  name: "gradients/mean_squared_error_1/value_grad/tuple/control_dependency_1"
  op: "Identity"
  input: "gradients/mean_squared_error_1/value_grad/Reshape_1"
  input: "^gradients/mean_squared_error_1/value_grad/tuple/group_deps"
  attr {
    key: "T"
    value {
      type: DT_FLOAT
    }
  }
  attr {
    key: "_class"
    value {
      list {
        s: "loc:@gradients/mean_squared_error_1/value_grad/Reshape_1"
      }
    }
  }
}
node {
  name: "gradients/mean_squared_error_1/Sum_2_grad/Reshape/shape"
  op: "Const"
  attr {
    key: "dtype"
    value {
      type: DT_INT32
    }
  }
  attr {
    key: "value"
    value {
      tensor {
        dtype: DT_INT32
        tensor_shape {
          dim {
          }
        }
      }
    }
  }
}
node {
  name: "gradients/mean_squared_error_1/Sum_2_grad/Reshape"
  op: "Reshape"
  input: "gradients/mean_squared_error_1/value_grad/tuple/control_dependency"
  input: "gradients/mean_squared_error_1/Sum_2_grad/Reshape/shape"
  attr {
    key: "T"
    value {
      type: DT_FLOAT
    }
  }
  attr {
    key: "Tshape"
    value {
      type: DT_INT32
    }
  }
}
node {
  name: "gradients/mean_squared_error_1/Sum_2_grad/Const"
  op: "Const"
  attr {
    key: "dtype"
    value {
      type: DT_INT32
    }
  }
  attr {
    key: "value"
    value {
      tensor {
        dtype: DT_INT32
        tensor_shape {
          dim {
          }
        }
      }
    }
  }
}
node {
  name: "gradients/mean_squared_error_1/Sum_2_grad/Tile"
  op: "Tile"
  input: "gradients/mean_squared_error_1/Sum_2_grad/Reshape"
  input: "gradients/mean_squared_error_1/Sum_2_grad/Const"
  attr {
    key: "T"
    value {
      type: DT_FLOAT
    }
  }
  attr {
    key: "Tmultiples"
    value {
      type: DT_INT32
    }
  }
}
node {
  name: "gradients/mean_squared_error_1/Sum_grad/Shape"
  op: "Shape"
  input: "mean_squared_error_1/Mul"
  attr {
    key: "T"
    value {
      type: DT_FLOAT
    }
  }
  attr {
    key: "out_type"
    value {
      type: DT_INT32
    }
  }
}
node {
…
    value {
      shape {
        dim {
          size: 7168
        }
        dim {
          size: 100
        }
      }
    }
  }
  attr {
    key: "shared_name"
    value {
      s: ""
    }
  }
}
node {
  name: "dense1/kernel/Adam/Assign"
  op: "Assign"
  input: "dense1/kernel/Adam"
  input: "dense1/kernel/Adam/Initializer/zeros"
  attr {
    key: "T"
    value {
      type: DT_FLOAT
    }
  }
  attr {
    key: "_class"
    value {
      list {
        s: "loc:@dense1/kernel"
      }
    }
  }
  attr {
    key: "use_locking"
    value {
      b: true
    }
  }
  attr {
    key: "validate_shape"
    value {
      b: true
    }
  }
}
node {
  name: "dense1/kernel/Adam/read"
  op: "Identity"
  input: "dense1/kernel/Adam"
  attr {
    key: "T"
    value {
      type: DT_FLOAT
    }
  }
  attr {
    key: "_class"
    value {
      list {
        s: "loc:@dense1/kernel"
      }
    }
  }
}
node {
  name: "dense1/kernel/Adam_1/Initializer/zeros/shape_as_tensor"
  op: "Const"
  attr {
    key: "_class"
    value {
      list {
        s: "loc:@dense1/kernel"
      }
    }
  }
  attr {
    key: "dtype"
    value {
      type: DT_INT32
    }
  }
  attr {
    key: "value"
    value {
      tensor {
        dtype: DT_INT32
        tensor_shape {
          dim {
            size: 2
          }
        }
        tensor_content: "\000\034\000\000d\000\000\000"
      }
    }
  }
}
node {
  name: "dense1/kernel/Adam_1/Initializer/zeros/Const"
  op: "Const"
  attr {
    key: "_class"
    value {
      list {
        s: "loc:@dense1/kernel"
      }
    }
  }
  attr {
    key: "dtype"
    value {
      type: DT_FLOAT
    }
  }
  attr {
    key: "value"
    value {
      tensor {
        dtype: DT_FLOAT
        tensor_shape {
        }
        float_val: 0.0
      }
    }
  }
}
node {
  name: "dense1/kernel/Adam_1/Initializer/zeros"
  op: "Fill"
  input: "dense1/kernel/Adam_1/Initializer/zeros/shape_as_tensor"
  input: "dense1/kernel/Adam_1/Initializer/zeros/Const"
  attr {
    key: "T"
    value {
      type: DT_FLOAT
    }
  }
  attr {
    key: "_class"
    value {
      list {
        s: "loc:@dense1/kernel"
      }
    }
  }
  attr {
    key: "index_type"
    value {
      type: DT_INT32
    }
  }
}
node {
  name: "dense1/kernel/Adam_1"
  op: "VariableV2"
  attr {
    key: "_class"
    value {
      list {
        s: "loc:@dense1/kernel"
      }
    }
  }
  attr {
    key: "container"
    value {
      s: ""
    }
  }
  attr {
    key: "dtype"
    value {
      type: DT_FLOAT
    }
  }
  attr {
    key: "shape"
    value {
      shape {
        dim {
          size: 7168
        }
        dim {
          size: 100
        }
      }
    }
  }
  attr {
    key: "shared_name"
    value {
      s: ""
    }
  }
}
node {
  name: "dense1/kernel/Adam_1/Assign"
  op: "Assign"
  input: "dense1/kernel/Adam_1"
  input: "dense1/kernel/Adam_1/Initializer/zeros"
  attr {
    key: "T"
    value {
      type: DT_FLOAT
    }
  }
  attr {
    key: "_class"
    value {
      list {
        s: "loc:@dense1/kernel"
      }
    }
  }
  attr {
    key: "use_locking"
    value {
      b: true
    }
  }
  attr {
    key: "validate_shape"
    value {
      b: true
    }
  }
}
node {
  name: "dense1/kernel/Adam_1/read"
  op: "Identity"
  input: "dense1/kernel/Adam_1"
  attr {
    key: "T"
    value {
      type: DT_FLOAT
    }
  }
  attr {
    key: "_class"
    value {
      list {
        s: "loc:@dense1/kernel"
      }
    }
  }
}
node {
  name: "dense1/bias/Adam/Initializer/zeros"
  op: "Const"
  attr {
    key: "_class"
    value {
      list {
        s: "loc:@dense1/bias"
      }
    }
  }
  attr {
    key: "dtype"
    value {
      type: DT_FLOAT
    }
  }
  attr {
    key: "value"
    value {
      tensor {
        dtype: DT_FLOAT
        tensor_shape {
          dim {
            size: 100
          }
        }
        float_val: 0.0
      }
    }
  }
}
node {
  name: "dense1/bias/Adam"
  op: "VariableV2"
  attr {
    key: "_class"
    value {
      list {
        s: "loc:@dense1/bias"
      }
    }
  }
  attr {
    key: "container"
    value {
      s: ""
    }
  }
  attr {
    key: "dtype"
    value {
      type: DT_FLOAT
    }
  }
  attr {
    key: "shape"
    value {
      shape {
        dim {
          size: 100
        }
      }
    }
  }
  attr {
    key: "shared_name"
    value {
      s: ""
    }
  }
}
node {
  name: "dense1/bias/Adam/Assign"
  op: "Assign"
  input: "dense1/bias/Adam"
  input: "dense1/bias/Adam/Initializer/zeros"
  attr {
    key: "T"
    value {
      type: DT_FLOAT
    }
  }
  attr {
    key: "_class"
    value {
      list {
        s: "loc:@dense1/bias"
      }
    }
  }
  attr {
    key: "use_locking"
    value {
      b: true
    }
  }
  attr {
    key: "validate_shape"
    value {
      b: true
    }
  }
}
node {
  name: "dense1/bias/Adam/read"
  op: "Identity"
  input: "dense1/bias/Adam"
  attr {
    key: "T"
    value {
      type: DT_FLOAT
    }
  }
  attr {
    key: "_class"
    value {
      list {
        s: "loc:@dense1/bias"
      }
    }
  }
}
node {
  name: "dense1/bias/Adam_1/Initializer/zeros"
  op: "Const"
  attr {
    key: "_class"
    value {
      list {
        s: "loc:@dense1/bias"
      }
    }
  }
  attr {
    key: "dtype"
    value {
      type: DT_FLOAT
    }
  }
  attr {
    key: "value"
    value {
      tensor {
        dtype: DT_FLOAT
        tensor_shape {
          dim {
            size: 100
          }
        }
        float_val: 0.0
      }
    }
  }
}
node {
  name: "dense1/bias/Adam_1"
  op: "VariableV2"
  attr {
    key: "_class"
    value {
      list {
        s: "loc:@dense1/bias"
      }
    }
  }
  attr {
    key: "container"
    value {
      s: ""
    }
  }
  attr {
    key: "dtype"
    value {
      type: DT_FLOAT
    }
  }
  attr {
    key: "shape"
    value {
      shape {
        dim {
          size: 100
        }
      }
    }
  }
  attr {
    key: "shared_name"
    value {
      s: ""
    }
  }
}
node {
  name: "dense1/bias/Adam_1/Assign"
  op: "Assign"
  input: "dense1/bias/Adam_1"
  input: "dense1/bias/Adam_1/Initializer/zeros"
  attr {
    key: "T"
    value {
      type: DT_FLOAT
    }
  }
  attr {
    key: "_class"
    value {
      list {
        s: "loc:@dense1/bias"
      }
    }
  }
  attr {
    key: "use_locking"
    value {
      b: true
    }
  }
  attr {
    key: "validate_shape"
    value {
      b: true
    }
  }
}
node {
  name: "dense1/bias/Adam_1/read"
  op: "Identity"
  input: "dense1/bias/Adam_1"
  attr {
    key: "T"
    value {
      type: DT_FLOAT
    }
  }
  attr {
    key: "_class"
    value {
      list {
        s: "loc:@dense1/bias"
      }
    }
  }
}
node {
  name: "output/kernel/Adam/Initializer/zeros"
  op: "Const"
  attr {
    key: "_class"
    value {
      list {
        s: "loc:@output/kernel"
      }
    }
  }
  attr {
    key: "dtype"
    value {
      type: DT_FLOAT
    }
  }
  attr {
    key: "value"
    value {
      tensor {
        dtype: DT_FLOAT
        tensor_shape {
          dim {
            size: 100
          }
          dim {
            size: 1
          }
        }
        float_val: 0.0
      }
    }
  }
}
node {
  name: "output/kernel/Adam"
  op: "VariableV2"
  attr {
    key: "_class"
    value {
      list {
        s: "loc:@output/kernel"
      }
    }
  }
  attr {
    key: "container"
    value {
      s: ""
    }
  }
  attr {
    key: "dtype"
    value {
      type: DT_FLOAT
    }
  }
  attr {
    key: "shape"
    value {
      shape {
        dim {
          size: 100
        }
        dim {
          size: 1
        }
      }
    }
  }
  attr {
    key: "shared_name"
    value {
      s: ""
    }
  }
}
node {
  name: "output/kernel/Adam/Assign"
  op: "Assign"
  input: "output/kernel/Adam"
  input: "output/kernel/Adam/Initializer/zeros"
  attr {
    key: "T"
    value {
      type: DT_FLOAT
    }
  }
  attr {
    key: "_class"
    value {
      list {
        s: "loc:@output/kernel"
      }
    }
  }
  attr {
    key: "use_locking"
    value {
      b: true
    }
  }
  attr {
    key: "validate_shape"
    value {
      b: true
    }
  }
}
node {
  name: "output/kernel/Adam/read"
  op: "Identity"
  input: "output/kernel/Adam"
  attr {
    key: "T"
    value {
      type: DT_FLOAT
    }
  }
  attr {
    key: "_class"
    value {
      list {
        s: "loc:@output/kernel"
      }
    }
  }
}
node {
  name: "output/kernel/Adam_1/Initializer/zeros"
  op: "Const"
  attr {
    key: "_class"
    value {
      list {
        s: "loc:@output/kernel"
      }
    }
  }
  attr {
    key: "dtype"
    value {
      type: DT_FLOAT
    }
  }
  attr {
    key: "value"
    value {
      tensor {
        dtype: DT_FLOAT
        tensor_shape {
          dim {
            size: 100
          }
          dim {
            size: 1
          }
        }
        float_val: 0.0
      }
    }
  }
}
node {
  name: "output/kernel/Adam_1"
  op: "VariableV2"
  attr {
    key: "_class"
    value {
      list {
        s: "loc:@output/kernel"
      }
    }
  }
  attr {
    key: "container"
    value {
      s: ""
    }
  }
  attr {
    key: "dtype"
    value {
      type: DT_FLOAT
    }
  }
  attr {
    key: "shape"
    value {
      shape {
        dim {
          size: 100
        }
        dim {
          size: 1
        }
      }
    }
  }
  attr {
    key: "shared_name"
    value {
      s: ""
    }
  }
}
node {
  name: "output/kernel/Adam_1/Assign"
  op: "Assign"
  input: "output/kernel/Adam_1"
  input: "output/kernel/Adam_1/Initializer/zeros"
  attr {
    key: "T"
    value {
      type: DT_FLOAT
    }
  }
  attr {
    key: "_class"
    value {
      list {
        s: "loc:@output/kernel"
      }
    }
  }
  attr {
    key: "use_locking"
    value {
      b: true
    }
  }
  attr {
    key: "validate_shape"
    value {
      b: true
    }
  }
}
node {
  name: "output/kernel/Adam_1/read"
  op: "Identity"
  input: "output/kernel/Adam_1"
  attr {
    key: "T"
    value {
      type: DT_FLOAT
    }
  }
  attr {
    key: "_class"
    value {
      list {
        s: "loc:@output/kernel"
      }
    }
  }
}
node {
  name: "output/bias/Adam/Initializer/zeros"
  op: "Const"
  attr {
    key: "_class"
    value {
      list {
        s: "loc:@output/bias"
      }
    }
  }
  attr {
    key: "dtype"
    value {
      type: DT_FLOAT
    }
  }
  attr {
    key: "value"
    value {
      tensor {
        dtype: DT_FLOAT
        tensor_shape {
          dim {
            size: 1
          }
        }
        float_val: 0.0
      }
    }
  }
}
node {
  name: "output/bias/Adam"
  op: "VariableV2"
  attr {
    key: "_class"
    value {
      list {
        s: "loc:@output/bias"
      }
    }
  }
  attr {
    key: "container"
    value {
      s: ""
    }
  }
  attr {
    key: "dtype"
    value {
      type: DT_FLOAT
    }
  }
  attr {
    key: "shape"
    value {
      shape {
        dim {
          size: 1
        }
      }
    }
  }
  attr {
    key: "shared_name"
    value {
      s: ""
    }
  }
}
node {
  name: "output/bias/Adam/Assign"
  op: "Assign"
  input: "output/bias/Adam"
  input: "output/bias/Adam/Initializer/zeros"
  attr {
    key: "T"
    value {
      type: DT_FLOAT
    }
  }
  attr {
    key: "_class"
    value {
      list {
        s: "loc:@output/bias"
      }
    }
  }
  attr {
    key: "use_locking"
    value {
      b: true
    }
  }
  attr {
    key: "validate_shape"
    value {
      b: true
    }
  }
}
node {
  name: "output/bias/Adam/read"
  op: "Identity"
  input: "output/bias/Adam"
  attr {
    key: "T"
    value {
      type: DT_FLOAT
    }
  }
  attr {
    key: "_class"
    value {
      list {
        s: "loc:@output/bias"
      }
    }
  }
}
node {
  name: "output/bias/Adam_1/Initializer/zeros"
  op: "Const"
  attr {
    key: "_class"
    value {
      list {
        s: "loc:@output/bias"
      }
    }
  }
  attr {
    key: "dtype"
    value {
      type: DT_FLOAT
    }
  }
  attr {
    key: "value"
    value {
      tensor {
        dtype: DT_FLOAT
        tensor_shape {
          dim {
            size: 1
          }
        }
        float_val: 0.0
      }
    }
  }
}
node {
  name: "output/bias/Adam_1"
  op: "VariableV2"
  attr {
    key: "_class"
    value {
      list {
        s: "loc:@output/bias"
      }
    }
  }
  attr {
    key: "container"
    value {
      s: ""
    }
  }
  attr {
    key: "dtype"
    value {
      type: DT_FLOAT
    }
  }
  attr {
    key: "shape"
    value {
      shape {
        dim {
          size: 1
        }
      }
    }
  }
  attr {
    key: "shared_name"
    value {
      s: ""
    }
  }
}
node {
  name: "output/bias/Adam_1/Assign"
  op: "Assign"
  input: "output/bias/Adam_1"
  input: "output/bias/Adam_1/Initializer/zeros"
  attr {
    key: "T"
    value {
      type: DT_FLOAT
    }
  }
  attr {
    key: "_class"
    value {
      list {
        s: "loc:@output/bias"
      }
    }
  }
  attr {
    key: "use_locking"
    value {
      b: true
    }
  }
  attr {
    key: "validate_shape"
    value {
      b: true
    }
  }
}
node {
  name: "output/bias/Adam_1/read"
  op: "Identity"
  input: "output/bias/Adam_1"
  attr {
    key: "T"
    value {
      type: DT_FLOAT
    }
  }
  attr {
    key: "_class"
    value {
      list {
        s: "loc:@output/bias"
      }
    }
  }
}
node {
  name: "Adam/learning_rate"
  op: "Const"
  attr {
    key: "dtype"
    value {
      type: DT_FLOAT
    }
  }
  attr {
    key: "value"
    value {
      tensor {
        dtype: DT_FLOAT
        tensor_shape {
        }
        float_val: 9.999999747378752e-05
      }
    }
  }
}
node {
  name: "Adam/beta1"
  op: "Const"
  attr {
    key: "dtype"
    value {
      type: DT_FLOAT
    }
  }
  attr {
    key: "value"
    value {
      tensor {
        dtype: DT_FLOAT
        tensor_shape {
        }
        float_val: 0.8999999761581421
      }
    }
  }
}
node {
  name: "Adam/beta2"
  op: "Const"
  attr {
    key: "dtype"
    value {
      type: DT_FLOAT
    }
  }
  attr {
    key: "value"
    value {
      tensor {
        dtype: DT_FLOAT
        tensor_shape {
        }
        float_val: 0.9990000128746033
      }
    }
  }
}
node {
  name: "Adam/epsilon"
  op: "Const"
  attr {
    key: "dtype"
    value {
      type: DT_FLOAT
    }
  }
  attr {
    key: "value"
    value {
      tensor {
        dtype: DT_FLOAT
        tensor_shape {
        }
        float_val: 9.99999993922529e-09
      }
    }
  }
}
node {
  name: "Adam/update_Wc/ApplyAdam"
  op: "ApplyAdam"
  input: "Wc"
  input: "Wc/Adam"
  input: "Wc/Adam_1"
  input: "beta1_power/read"
  input: "beta2_power/read"
  input: "Adam/learning_rate"
  input: "Adam/beta1"
  input: "Adam/beta2"
  input: "Adam/epsilon"
  input: "gradients/MatMul_grad/tuple/control_dependency_1"
  attr {
    key: "T"
    value {
      type: DT_FLOAT
    }
  }
  attr {
    key: "_class"
    value {
      list {
        s: "loc:@Wc"
      }
    }
  }
  attr {
    key: "use_locking"
    value {
      b: false
    }
  }
  attr {
    key: "use_nesterov"
    value {
      b: false
    }
  }
}
node {
  name: "Adam/update_Wn/ApplyAdam"
  op: "ApplyAdam"
  input: "Wn"
  input: "Wn/Adam"
  input: "Wn/Adam_1"
  input: "beta1_power/read"
  input: "beta2_power/read"
  input: "Adam/learning_rate"
  input: "Adam/beta1"
  input: "Adam/beta2"
  input: "Adam/epsilon"
  input: "gradients/MatMul_1_grad/tuple/control_dependency_1"
  attr {
    key: "T"
    value {
      type: DT_FLOAT
    }
  }
  attr {
    key: "_class"
    value {
      list {
        s: "loc:@Wn"
      }
    }
  }
  attr {
    key: "use_locking"
    value {
      b: false
    }
  }
  attr {
    key: "use_nesterov"
    value {
      b: false
    }
  }
}
node {
  name: "Adam/update_b/ApplyAdam"
  op: "ApplyAdam"
  input: "b"
  input: "b/Adam"
  input: "b/Adam_1"
  input: "beta1_power/read"
  input: "beta2_power/read"
  input: "Adam/learning_rate"
  input: "Adam/beta1"
  input: "Adam/beta2"
  input: "Adam/epsilon"
  input: "gradients/add_1_grad/tuple/control_dependency_1"
  attr {
    key: "T"
    value {
      type: DT_FLOAT
    }
  }
  attr {
    key: "_class"
    value {
      list {
        s: "loc:@b"
      }
    }
  }
  attr {
    key: "use_locking"
    value {
      b: false
    }
  }
  attr {
    key: "use_nesterov"
    value {
      b: false
    }
  }
}
node {
  name: "Adam/update_Wc_1/ApplyAdam"
  op: "ApplyAdam"
  input: "Wc_1"
  input: "Wc_1/Adam"
  input: "Wc_1/Adam_1"
  input: "beta1_power/read"
  input: "beta2_power/read"
  input: "Adam/learning_rate"
  input: "Adam/beta1"
  input: "Adam/beta2"
  input: "Adam/epsilon"
  input: "gradients/MatMul_3_grad/tuple/control_dependency_1"
  attr {
    key: "T"
    value {
      type: DT_FLOAT
    }
  }
  attr {
    key: "_class"
    value {
      list {
        s: "loc:@Wc_1"
      }
    }
  }
  attr {
    key: "use_locking"
    value {
      b: false
    }
  }
  attr {
    key: "use_nesterov"
    value {
      b: false
    }
  }
}
node {
  name: "Adam/update_Wn_1/ApplyAdam"
  op: "ApplyAdam"
  input: "Wn_1"
  input: "Wn_1/Adam"
  input: "Wn_1/Adam_1"
  input: "beta1_power/read"
  input: "beta2_power/read"
  input: "Adam/learning_rate"
  input: "Adam/beta1"
  input: "Adam/beta2"
  input: "Adam/epsilon"
  input: "gradients/MatMul_4_grad/tuple/control_dependency_1"
  attr {
    key: "T"
    value {
      type: DT_FLOAT
    }
  }
  attr {
    key: "_class"
    value {
      list {
        s: "loc:@Wn_1"
      }
    }
  }
  attr {
    key: "use_locking"
    value {
      b: false
    }
  }
  attr {
    key: "use_nesterov"
    value {
      b: false
    }
  }
}
node {
  name: "Adam/update_b_1/ApplyAdam"
  op: "ApplyAdam"
  input: "b_1"
  input: "b_1/Adam"
  input: "b_1/Adam_1"
  input: "beta1_power/read"
  input: "beta2_power/read"
  input: "Adam/learning_rate"
  input: "Adam/beta1"
  input: "Adam/beta2"
  input: "Adam/epsilon"
  input: "gradients/add_3_grad/tuple/control_dependency_1"
  attr {
    key: "T"
    value {
      type: DT_FLOAT
    }
  }
  attr {
    key: "_class"
    value {
      list {
        s: "loc:@b_1"
      }
    }
  }
  attr {
    key: "use_locking"
    value {
      b: false
    }
  }
  attr {
    key: "use_nesterov"
    value {
      b: false
    }
  }
}
node {
  name: "Adam/update_Wc_2/ApplyAdam"
  op: "ApplyAdam"
  input: "Wc_2"
  input: "Wc_2/Adam"
  input: "Wc_2/Adam_1"
  input: "beta1_power/read"
  input: "beta2_power/read"
  input: "Adam/learning_rate"
  input: "Adam/beta1"
  input: "Adam/beta2"
  input: "Adam/epsilon"
  input: "gradients/MatMul_6_grad/tuple/control_dependency_1"
  attr {
    key: "T"
    value {
      type: DT_FLOAT
    }
  }
  attr {
    key: "_class"
    value {
      list {
        s: "loc:@Wc_2"
      }
    }
  }
  attr {
    key: "use_locking"
    value {
      b: false
    }
  }
  attr {
    key: "use_nesterov"
    value {
      b: false
    }
  }
}
node {
  name: "Adam/update_Wn_2/ApplyAdam"
  op: "ApplyAdam"
  input: "Wn_2"
  input: "Wn_2/Adam"
  input: "Wn_2/Adam_1"
  input: "beta1_power/read"
  input: "beta2_power/read"
  input: "Adam/learning_rate"
  input: "Adam/beta1"
  input: "Adam/beta2"
  input: "Adam/epsilon"
  input: "gradients/MatMul_7_grad/tuple/control_dependency_1"
  attr {
    key: "T"
    value {
      type: DT_FLOAT
    }
  }
  attr {
    key: "_class"
    value {
      list {
        s: "loc:@Wn_2"
      }
    }
  }
  attr {
    key: "use_locking"
    value {
      b: false
    }
  }
  attr {
    key: "use_nesterov"
    value {
      b: false
    }
  }
}
node {
  name: "Adam/update_b_2/ApplyAdam"
  op: "ApplyAdam"
  input: "b_2"
  input: "b_2/Adam"
  input: "b_2/Adam_1"
  input: "beta1_power/read"
  input: "beta2_power/read"
  input: "Adam/learning_rate"
  input: "Adam/beta1"
  input: "Adam/beta2"
  input: "Adam/epsilon"
  input: "gradients/add_5_grad/tuple/control_dependency_1"
  attr {
    key: "T"
    value {
      type: DT_FLOAT
    }
  }
  attr {
    key: "_class"
    value {
      list {
        s: "loc:@b_2"
      }
    }
  }
  attr {
    key: "use_locking"
    value {
      b: false
    }
  }
  attr {
    key: "use_nesterov"
    value {
      b: false
    }
  }
}
node {
  name: "Adam/update_Wc_3/ApplyAdam"
  op: "ApplyAdam"
  input: "Wc_3"
  input: "Wc_3/Adam"
  input: "Wc_3/Adam_1"
  input: "beta1_power/read"
  input: "beta2_power/read"
  input: "Adam/learning_rate"
  input: "Adam/beta1"
  input: "Adam/beta2"
  input: "Adam/epsilon"
  input: "gradients/MatMul_9_grad/tuple/control_dependency_1"
  attr {
    key: "T"
    value {
      type: DT_FLOAT
    }
  }
  attr {
    key: "_class"
    value {
      list {
        s: "loc:@Wc_3"
      }
    }
  }
  attr {
    key: "use_locking"
    value {
      b: false
    }
  }
  attr {
    key: "use_nesterov"
    value {
      b: false
    }
  }
}
node {
  name: "Adam/update_Wn_3/ApplyAdam"
  op: "ApplyAdam"
  input: "Wn_3"
  input: "Wn_3/Adam"
  input: "Wn_3/Adam_1"
  input: "beta1_power/read"
  input: "beta2_power/read"
  input: "Adam/learning_rate"
  input: "Adam/beta1"
  input: "Adam/beta2"
  input: "Adam/epsilon"
  input: "gradients/MatMul_10_grad/tuple/control_dependency_1"
  attr {
    key: "T"
    value {
      type: DT_FLOAT
    }
  }
  attr {
    key: "_class"
    value {
      list {
        s: "loc:@Wn_3"
      }
    }
  }
  attr {
    key: "use_locking"
    value {
      b: false
    }
  }
  attr {
    key: "use_nesterov"
    value {
      b: false
    }
  }
}
node {
  name: "Adam/update_b_3/ApplyAdam"
  op: "ApplyAdam"
  input: "b_3"
  input: "b_3/Adam"
  input: "b_3/Adam_1"
  input: "beta1_power/read"
  input: "beta2_power/read"
  input: "Adam/learning_rate"
  input: "Adam/beta1"
  input: "Adam/beta2"
  input: "Adam/epsilon"
  input: "gradients/add_7_grad/tuple/control_dependency_1"
  attr {
    key: "T"
    value {
      type: DT_FLOAT
    }
  }
  attr {
    key: "_class"
    value {
      list {
        s: "loc:@b_3"
      }
    }
  }
  attr {
    key: "use_locking"
    value {
      b: false
    }
  }
  attr {
    key: "use_nesterov"
    value {
      b: false
    }
  }
}
node {
  name: "Adam/update_Wc_4/ApplyAdam"
  op: "ApplyAdam"
  input: "Wc_4"
  input: "Wc_4/Adam"
  input: "Wc_4/Adam_1"
  input: "beta1_power/read"
  input: "beta2_power/read"
  input: "Adam/learning_rate"
  input: "Adam/beta1"
  input: "Adam/beta2"
  input: "Adam/epsilon"
  input: "gradients/MatMul_12_grad/tuple/control_dependency_1"
  attr {
    key: "T"
    value {
      type: DT_FLOAT
    }
  }
  attr {
    key: "_class"
    value {
      list {
        s: "loc:@Wc_4"
      }
    }
  }
  attr {
    key: "use_locking"
    value {
      b: false
    }
  }
  attr {
    key: "use_nesterov"
    value {
      b: false
    }
  }
}
node {
  name: "Adam/update_Wn_4/ApplyAdam"
  op: "ApplyAdam"
  input: "Wn_4"
  input: "Wn_4/Adam"
  input: "Wn_4/Adam_1"
  input: "beta1_power/read"
  input: "beta2_power/read"
  input: "Adam/learning_rate"
  input: "Adam/beta1"
  input: "Adam/beta2"
  input: "Adam/epsilon"
  input: "gradients/MatMul_13_grad/tuple/control_dependency_1"
  attr {
    key: "T"
    value {
      type: DT_FLOAT
    }
  }
  attr {
    key: "_class"
    value {
      list {
        s: "loc:@Wn_4"
      }
    }
  }
  attr {
    key: "use_locking"
    value {
      b: false
    }
  }
  attr {
    key: "use_nesterov"
    value {
      b: false
    }
  }
}
node {
  name: "Adam/update_b_4/ApplyAdam"
  op: "ApplyAdam"
  input: "b_4"
  input: "b_4/Adam"
  input: "b_4/Adam_1"
  input: "beta1_power/read"
  input: "beta2_power/read"
  input: "Adam/learning_rate"
  input: "Adam/beta1"
  input: "Adam/beta2"
  input: "Adam/epsilon"
  input: "gradients/add_9_grad/tuple/control_dependency_1"
  attr {
    key: "T"
    value {
      type: DT_FLOAT
    }
  }
  attr {
    key: "_class"
    value {
      list {
        s: "loc:@b_4"
      }
    }
  }
  attr {
    key: "use_locking"
    value {
      b: false
    }
  }
  attr {
    key: "use_nesterov"
    value {
      b: false
    }
  }
}
node {
  name: "Adam/update_dense1/kernel/ApplyAdam"
  op: "ApplyAdam"
  input: "dense1/kernel"
  input: "dense1/kernel/Adam"
  input: "dense1/kernel/Adam_1"
  input: "beta1_power/read"
  input: "beta2_power/read"
  input: "Adam/learning_rate"
  input: "Adam/beta1"
  input: "Adam/beta2"
  input: "Adam/epsilon"
  input: "gradients/dense1/MatMul_grad/tuple/control_dependency_1"
  attr {
    key: "T"
    value {
      type: DT_FLOAT
    }
  }
  attr {
    key: "_class"
    value {
      list {
        s: "loc:@dense1/kernel"
      }
    }
  }
  attr {
    key: "use_locking"
    value {
      b: false
    }
  }
  attr {
    key: "use_nesterov"
    value {
      b: false
    }
  }
}
node {
  name: "Adam/update_dense1/bias/ApplyAdam"
  op: "ApplyAdam"
  input: "dense1/bias"
  input: "dense1/bias/Adam"
  input: "dense1/bias/Adam_1"
  input: "beta1_power/read"
  input: "beta2_power/read"
  input: "Adam/learning_rate"
  input: "Adam/beta1"
  input: "Adam/beta2"
  input: "Adam/epsilon"
  input: "gradients/dense1/BiasAdd_grad/tuple/control_dependency_1"
  attr {
    key: "T"
    value {
      type: DT_FLOAT
    }
  }
  attr {
    key: "_class"
    value {
      list {
        s: "loc:@dense1/bias"
      }
    }
  }
  attr {
    key: "use_locking"
    value {
      b: false
    }
  }
  attr {
    key: "use_nesterov"
    value {
      b: false
    }
  }
}
node {
  name: "Adam/update_output/kernel/ApplyAdam"
  op: "ApplyAdam"
  input: "output/kernel"
  input: "output/kernel/Adam"
  input: "output/kernel/Adam_1"
  input: "beta1_power/read"
  input: "beta2_power/read"
  input: "Adam/learning_rate"
  input: "Adam/beta1"
  input: "Adam/beta2"
  input: "Adam/epsilon"
  input: "gradients/output/MatMul_grad/tuple/control_dependency_1"
  attr {
    key: "T"
    value {
      type: DT_FLOAT
    }
  }
  attr {
    key: "_class"
    value {
      list {
        s: "loc:@output/kernel"
      }
    }
  }
  attr {
    key: "use_locking"
    value {
      b: false
    }
  }
  attr {
    key: "use_nesterov"
    value {
      b: false
    }
  }
}
node {
  name: "Adam/update_output/bias/ApplyAdam"
  op: "ApplyAdam"
  input: "output/bias"
  input: "output/bias/Adam"
  input: "output/bias/Adam_1"
  input: "beta1_power/read"
  input: "beta2_power/read"
  input: "Adam/learning_rate"
  input: "Adam/beta1"
  input: "Adam/beta2"
  input: "Adam/epsilon"
  input: "gradients/output/BiasAdd_grad/tuple/control_dependency_1"
  attr {
    key: "T"
    value {
      type: DT_FLOAT
    }
  }
  attr {
    key: "_class"
    value {
      list {
        s: "loc:@output/bias"
      }
    }
  }
  attr {
    key: "use_locking"
    value {
      b: false
    }
  }
  attr {
    key: "use_nesterov"
    value {
      b: false
    }
  }
}
node {
  name: "Adam/mul"
  op: "Mul"
  input: "beta1_power/read"
  input: "Adam/beta1"
  input: "^Adam/update_Wc/ApplyAdam"
  input: "^Adam/update_Wc_1/ApplyAdam"
  input: "^Adam/update_Wc_2/ApplyAdam"
  input: "^Adam/update_Wc_3/ApplyAdam"
  input: "^Adam/update_Wc_4/ApplyAdam"
  input: "^Adam/update_Wn/ApplyAdam"
  input: "^Adam/update_Wn_1/ApplyAdam"
  input: "^Adam/update_Wn_2/ApplyAdam"
  input: "^Adam/update_Wn_3/ApplyAdam"
  input: "^Adam/update_Wn_4/ApplyAdam"
  input: "^Adam/update_b/ApplyAdam"
  input: "^Adam/update_b_1/ApplyAdam"
  input: "^Adam/update_b_2/ApplyAdam"
  input: "^Adam/update_b_3/ApplyAdam"
  input: "^Adam/update_b_4/ApplyAdam"
  input: "^Adam/update_dense1/bias/ApplyAdam"
  input: "^Adam/update_dense1/kernel/ApplyAdam"
  input: "^Adam/update_output/bias/ApplyAdam"
  input: "^Adam/update_output/kernel/ApplyAdam"
  attr {
    key: "T"
    value {
      type: DT_FLOAT
    }
  }
  attr {
    key: "_class"
    value {
      list {
        s: "loc:@Wc"
      }
    }
  }
}
node {
  name: "Adam/Assign"
  op: "Assign"
  input: "beta1_power"
  input: "Adam/mul"
  attr {
    key: "T"
    value {
      type: DT_FLOAT
    }
  }
  attr {
    key: "_class"
    value {
      list {
        s: "loc:@Wc"
      }
    }
  }
  attr {
    key: "use_locking"
    value {
      b: false
    }
  }
  attr {
    key: "validate_shape"
    value {
      b: true
    }
  }
}
node {
  name: "Adam/mul_1"
  op: "Mul"
  input: "beta2_power/read"
  input: "Adam/beta2"
  input: "^Adam/update_Wc/ApplyAdam"
  input: "^Adam/update_Wc_1/ApplyAdam"
  input: "^Adam/update_Wc_2/ApplyAdam"
  input: "^Adam/update_Wc_3/ApplyAdam"
  input: "^Adam/update_Wc_4/ApplyAdam"
  input: "^Adam/update_Wn/ApplyAdam"
  input: "^Adam/update_Wn_1/ApplyAdam"
  input: "^Adam/update_Wn_2/ApplyAdam"
  input: "^Adam/update_Wn_3/ApplyAdam"
  input: "^Adam/update_Wn_4/ApplyAdam"
  input: "^Adam/update_b/ApplyAdam"
  input: "^Adam/update_b_1/ApplyAdam"
  input: "^Adam/update_b_2/ApplyAdam"
  input: "^Adam/update_b_3/ApplyAdam"
  input: "^Adam/update_b_4/ApplyAdam"
  input: "^Adam/update_dense1/bias/ApplyAdam"
  input: "^Adam/update_dense1/kernel/ApplyAdam"
  input: "^Adam/update_output/bias/ApplyAdam"
  input: "^Adam/update_output/kernel/ApplyAdam"
  attr {
    key: "T"
    value {
      type: DT_FLOAT
    }
  }
  attr {
    key: "_class"
    value {
      list {
        s: "loc:@Wc"
      }
    }
  }
}
node {
  name: "Adam/Assign_1"
  op: "Assign"
  input: "beta2_power"
  input: "Adam/mul_1"
  attr {
    key: "T"
    value {
      type: DT_FLOAT
    }
  }
  attr {
    key: "_class"
    value {
      list {
        s: "loc:@Wc"
      }
    }
  }
  attr {
    key: "use_locking"
    value {
      b: false
    }
  }
  attr {
    key: "validate_shape"
    value {
      b: true
    }
  }
}
node {
  name: "Adam/update"
  op: "NoOp"
  input: "^Adam/Assign"
  input: "^Adam/Assign_1"
  input: "^Adam/update_Wc/ApplyAdam"
  input: "^Adam/update_Wc_1/ApplyAdam"
  input: "^Adam/update_Wc_2/ApplyAdam"
  input: "^Adam/update_Wc_3/ApplyAdam"
  input: "^Adam/update_Wc_4/ApplyAdam"
  input: "^Adam/update_Wn/ApplyAdam"
  input: "^Adam/update_Wn_1/ApplyAdam"
  input: "^Adam/update_Wn_2/ApplyAdam"
  input: "^Adam/update_Wn_3/ApplyAdam"
  input: "^Adam/update_Wn_4/ApplyAdam"
  input: "^Adam/update_b/ApplyAdam"
  input: "^Adam/update_b_1/ApplyAdam"
  input: "^Adam/update_b_2/ApplyAdam"
  input: "^Adam/update_b_3/ApplyAdam"
  input: "^Adam/update_b_4/ApplyAdam"
  input: "^Adam/update_dense1/bias/ApplyAdam"
  input: "^Adam/update_dense1/kernel/ApplyAdam"
  input: "^Adam/update_output/bias/ApplyAdam"
  input: "^Adam/update_output/kernel/ApplyAdam"
}
node {
  name: "Adam/value"
  op: "Const"
  input: "^Adam/update"
  attr {
    key: "_class"
    value {
      list {
        s: "loc:@global_step"
      }
    }
  }
  attr {
    key: "dtype"
    value {
      type: DT_INT32
    }
  }
  attr {
    key: "value"
    value {
      tensor {
        dtype: DT_INT32
        tensor_shape {
        }
        int_val: 1
      }
    }
  }
}
node {
  name: "Adam"
  op: "AssignAdd"
  input: "global_step"
  input: "Adam/value"
  attr {
    key: "T"
    value {
      type: DT_INT32
    }
  }
  attr {
    key: "_class"
    value {
      list {
        s: "loc:@global_step"
      }
    }
  }
  attr {
    key: "use_locking"
    value {
      b: false
    }
  }
}
node {
  name: "mse/tags"
  op: "Const"
  attr {
    key: "dtype"
    value {
      type: DT_STRING
    }
  }
  attr {
    key: "value"
    value {
      tensor {
        dtype: DT_STRING
        tensor_shape {
        }
        string_val: "mse"
      }
    }
  }
}
node {
  name: "mse"
  op: "ScalarSummary"
  input: "mse/tags"
  input: "mean_squared_error"
  attr {
    key: "T"
    value {
      type: DT_FLOAT
    }
  }
}
node {
  name: "r/tags"
  op: "Const"
  attr {
    key: "dtype"
    value {
      type: DT_STRING
    }
  }
  attr {
    key: "value"
    value {
      tensor {
        dtype: DT_STRING
        tensor_shape {
        }
        string_val: "r"
      }
    }
  }
}
node {
  name: "r"
  op: "ScalarSummary"
  input: "r/tags"
  input: "pearson_r"
  attr {
    key: "T"
    value {
      type: DT_FLOAT
    }
  }
}
node {
  name: "r2_1/tags"
  op: "Const"
  attr {
    key: "dtype"
    value {
      type: DT_STRING
    }
  }
  attr {
    key: "value"
    value {
      tensor {
        dtype: DT_STRING
        tensor_shape {
        }
        string_val: "r2_1"
      }
    }
  }
}
node {
  name: "r2_1"
  op: "ScalarSummary"
  input: "r2_1/tags"
  input: "r2"
  attr {
    key: "T"
    value {
      type: DT_FLOAT
    }
  }
}
node {
  name: "r_singles_1/tags"
  op: "Const"
  attr {
    key: "dtype"
    value {
      type: DT_STRING
    }
  }
  attr {
    key: "value"
    value {
      tensor {
        dtype: DT_STRING
        tensor_shape {
        }
        string_val: "r_singles_1"
      }
    }
  }
}
node {
  name: "r_singles_1"
  op: "ScalarSummary"
  input: "r_singles_1/tags"
  input: "r_singles"
  attr {
    key: "T"
    value {
      type: DT_FLOAT
    }
  }
}
node {
  name: "r_multi_1/tags"
  op: "Const"
  attr {
    key: "dtype"
    value {
      type: DT_STRING
    }
  }
  attr {
    key: "value"
    value {
      tensor {
        dtype: DT_STRING
        tensor_shape {
        }
        string_val: "r_multi_1"
      }
    }
  }
}
node {
  name: "r_multi_1"
  op: "ScalarSummary"
  input: "r_multi_1/tags"
  input: "r_multi"
  attr {
    key: "T"
    value {
      type: DT_FLOAT
    }
  }
}
node {
  name: "r_ep_1/tags"
  op: "Const"
  attr {
    key: "dtype"
    value {
      type: DT_STRING
    }
  }
  attr {
    key: "value"
    value {
      tensor {
        dtype: DT_STRING
        tensor_shape {
        }
        string_val: "r_ep_1"
      }
    }
  }
}
node {
  name: "r_ep_1"
  op: "ScalarSummary"
  input: "r_ep_1/tags"
  input: "r_ep"
  attr {
    key: "T"
    value {
      type: DT_FLOAT
    }
  }
}
node {
  name: "ev/tags"
  op: "Const"
  attr {
    key: "dtype"
    value {
      type: DT_STRING
    }
  }
  attr {
    key: "value"
    value {
      tensor {
        dtype: DT_STRING
        tensor_shape {
        }
        string_val: "ev"
      }
    }
  }
}
node {
  name: "ev"
  op: "ScalarSummary"
  input: "ev/tags"
  input: "explained_variance"
  attr {
    key: "T"
    value {
      type: DT_FLOAT
    }
  }
}
node {
  name: "Merge/MergeSummary"
  op: "MergeSummary"
  input: "validation_loss"
  input: "training_loss"
  attr {
    key: "N"
    value {
      i: 2
    }
  }
}
node {
  name: "Merge_1/MergeSummary"
  op: "MergeSummary"
  input: "mse"
  input: "r"
  input: "r2_1"
  input: "r_singles_1"
  input: "r_multi_1"
  input: "r_ep_1"
  input: "ev"
  attr {
    key: "N"
    value {
      i: 7
    }
  }
}
node {
  name: "init"
  op: "NoOp"
  input: "^Wc/Adam/Assign"
  input: "^Wc/Adam_1/Assign"
  input: "^Wc/Assign"
  input: "^Wc_1/Adam/Assign"
  input: "^Wc_1/Adam_1/Assign"
  input: "^Wc_1/Assign"
  input: "^Wc_2/Adam/Assign"
  input: "^Wc_2/Adam_1/Assign"
  input: "^Wc_2/Assign"
  input: "^Wc_3/Adam/Assign"
  input: "^Wc_3/Adam_1/Assign"
  input: "^Wc_3/Assign"
  input: "^Wc_4/Adam/Assign"
  input: "^Wc_4/Adam_1/Assign"
  input: "^Wc_4/Assign"
  input: "^Wn/Adam/Assign"
  input: "^Wn/Adam_1/Assign"
  input: "^Wn/Assign"
  input: "^Wn_1/Adam/Assign"
  input: "^Wn_1/Adam_1/Assign"
  input: "^Wn_1/Assign"
  input: "^Wn_2/Adam/Assign"
  input: "^Wn_2/Adam_1/Assign"
  input: "^Wn_2/Assign"
  input: "^Wn_3/Adam/Assign"
  input: "^Wn_3/Adam_1/Assign"
  input: "^Wn_3/Assign"
  input: "^Wn_4/Adam/Assign"
  input: "^Wn_4/Adam_1/Assign"
  input: "^Wn_4/Assign"
  input: "^b/Adam/Assign"
  input: "^b/Adam_1/Assign"
  input: "^b/Assign"
  input: "^b_1/Adam/Assign"
  input: "^b_1/Adam_1/Assign"
  input: "^b_1/Assign"
  input: "^b_2/Adam/Assign"
  input: "^b_2/Adam_1/Assign"
  input: "^b_2/Assign"
  input: "^b_3/Adam/Assign"
  input: "^b_3/Adam_1/Assign"
  input: "^b_3/Assign"
  input: "^b_4/Adam/Assign"
  input: "^b_4/Adam_1/Assign"
  input: "^b_4/Assign"
  input: "^beta1_power/Assign"
  input: "^beta2_power/Assign"
  input: "^dense1/bias/Adam/Assign"
  input: "^dense1/bias/Adam_1/Assign"
  input: "^dense1/bias/Assign"
  input: "^dense1/kernel/Adam/Assign"
  input: "^dense1/kernel/Adam_1/Assign"
  input: "^dense1/kernel/Assign"
  input: "^global_step/Assign"
  input: "^output/bias/Adam/Assign"
  input: "^output/bias/Adam_1/Assign"
  input: "^output/bias/Assign"
  input: "^output/kernel/Adam/Assign"
  input: "^output/kernel/Adam_1/Assign"
  input: "^output/kernel/Assign"
}
node {
  name: "save/filename/input"
  op: "Const"
  attr {
    key: "dtype"
    value {
      type: DT_STRING
    }
  }
  attr {
    key: "value"
    value {
      tensor {
        dtype: DT_STRING
        tensor_shape {
        }
        string_val: "model"
      }
    }
  }
}
node {
  name: "save/filename"
  op: "PlaceholderWithDefault"
  input: "save/filename/input"
  attr {
    key: "dtype"
    value {
      type: DT_STRING
    }
  }
  attr {
    key: "shape"
    value {
      shape {
      }
    }
  }
}
node {
  name: "save/Const"
  op: "PlaceholderWithDefault"
  input: "save/filename"
  attr {
    key: "dtype"
    value {
      type: DT_STRING
    }
  }
  attr {
    key: "shape"
    value {
      shape {
      }
    }
  }
}
node {
  name: "save/SaveV2/tensor_names"
  op: "Const"
  attr {
    key: "dtype"
    value {
      type: DT_STRING
    }
  }
  attr {
    key: "value"
    value {
      tensor {
        dtype: DT_STRING
        tensor_shape {
          dim {
            size: 19
          }
        }
        string_val: "Wc"
        string_val: "Wc_1"
        string_val: "Wc_2"
        string_val: "Wc_3"
        string_val: "Wc_4"
        string_val: "Wn"
        string_val: "Wn_1"
        string_val: "Wn_2"
        string_val: "Wn_3"
        string_val: "Wn_4"
        string_val: "b"
        string_val: "b_1"
        string_val: "b_2"
        string_val: "b_3"
        string_val: "b_4"
        string_val: "dense1/bias"
        string_val: "dense1/kernel"
        string_val: "output/bias"
        string_val: "output/kernel"
      }
    }
  }
}
node {
  name: "save/SaveV2/shape_and_slices"
  op: "Const"
  attr {
    key: "dtype"
    value {
      type: DT_STRING
    }
  }
  attr {
    key: "value"
    value {
      tensor {
        dtype: DT_STRING
        tensor_shape {
          dim {
            size: 19
          }
        }
        string_val: ""
        string_val: ""
        string_val: ""
        string_val: ""
        string_val: ""
        string_val: ""
        string_val: ""
        string_val: ""
        string_val: ""
        string_val: ""
        string_val: ""
        string_val: ""
        string_val: ""
        string_val: ""
        string_val: ""
        string_val: ""
        string_val: ""
        string_val: ""
        string_val: ""
      }
    }
  }
}
node {
  name: "save/SaveV2"
  op: "SaveV2"
  input: "save/Const"
  input: "save/SaveV2/tensor_names"
  input: "save/SaveV2/shape_and_slices"
  input: "Wc"
  input: "Wc_1"
  input: "Wc_2"
  input: "Wc_3"
  input: "Wc_4"
  input: "Wn"
  input: "Wn_1"
  input: "Wn_2"
  input: "Wn_3"
  input: "Wn_4"
  input: "b"
  input: "b_1"
  input: "b_2"
  input: "b_3"
  input: "b_4"
  input: "dense1/bias"
  input: "dense1/kernel"
  input: "output/bias"
  input: "output/kernel"
  attr {
    key: "dtypes"
    value {
      list {
        type: DT_FLOAT
        type: DT_FLOAT
        type: DT_FLOAT
        type: DT_FLOAT
        type: DT_FLOAT
        type: DT_FLOAT
        type: DT_FLOAT
        type: DT_FLOAT
        type: DT_FLOAT
        type: DT_FLOAT
        type: DT_FLOAT
        type: DT_FLOAT
        type: DT_FLOAT
        type: DT_FLOAT
        type: DT_FLOAT
        type: DT_FLOAT
        type: DT_FLOAT
        type: DT_FLOAT
        type: DT_FLOAT
      }
    }
  }
}
node {
  name: "save/control_dependency"
  op: "Identity"
  input: "save/Const"
  input: "^save/SaveV2"
  attr {
    key: "T"
    value {
      type: DT_STRING
    }
  }
  attr {
    key: "_class"
    value {
      list {
        s: "loc:@save/Const"
      }
    }
  }
}
node {
  name: "save/RestoreV2/tensor_names"
  op: "Const"
  attr {
    key: "dtype"
    value {
      type: DT_STRING
    }
  }
  attr {
    key: "value"
    value {
      tensor {
        dtype: DT_STRING
        tensor_shape {
          dim {
            size: 19
          }
        }
        string_val: "Wc"
        string_val: "Wc_1"
        string_val: "Wc_2"
        string_val: "Wc_3"
        string_val: "Wc_4"
        string_val: "Wn"
        string_val: "Wn_1"
        string_val: "Wn_2"
        string_val: "Wn_3"
        string_val: "Wn_4"
        string_val: "b"
        string_val: "b_1"
        string_val: "b_2"
        string_val: "b_3"
        string_val: "b_4"
        string_val: "dense1/bias"
        string_val: "dense1/kernel"
        string_val: "output/bias"
        string_val: "output/kernel"
      }
    }
  }
}
node {
  name: "save/RestoreV2/shape_and_slices"
  op: "Const"
  attr {
    key: "dtype"
    value {
      type: DT_STRING
    }
  }
  attr {
    key: "value"
    value {
      tensor {
        dtype: DT_STRING
        tensor_shape {
          dim {
            size: 19
          }
        }
        string_val: ""
        string_val: ""
        string_val: ""
        string_val: ""
        string_val: ""
        string_val: ""
        string_val: ""
        string_val: ""
        string_val: ""
        string_val: ""
        string_val: ""
        string_val: ""
        string_val: ""
        string_val: ""
        string_val: ""
        string_val: ""
        string_val: ""
        string_val: ""
        string_val: ""
      }
    }
  }
}
node {
  name: "save/RestoreV2"
  op: "RestoreV2"
  input: "save/Const"
  input: "save/RestoreV2/tensor_names"
  input: "save/RestoreV2/shape_and_slices"
  attr {
    key: "dtypes"
    value {
      list {
        type: DT_FLOAT
        type: DT_FLOAT
        type: DT_FLOAT
        type: DT_FLOAT
        type: DT_FLOAT
        type: DT_FLOAT
        type: DT_FLOAT
        type: DT_FLOAT
        type: DT_FLOAT
        type: DT_FLOAT
        type: DT_FLOAT
        type: DT_FLOAT
        type: DT_FLOAT
        type: DT_FLOAT
        type: DT_FLOAT
        type: DT_FLOAT
        type: DT_FLOAT
        type: DT_FLOAT
        type: DT_FLOAT
      }
    }
  }
}
node {
  name: "save/Assign"
  op: "Assign"
  input: "Wc"
  input: "save/RestoreV2"
  attr {
    key: "T"
    value {
      type: DT_FLOAT
    }
  }
  attr {
    key: "_class"
    value {
      list {
        s: "loc:@Wc"
      }
    }
  }
  attr {
    key: "use_locking"
    value {
      b: true
    }
  }
  attr {
    key: "validate_shape"
    value {
      b: true
    }
  }
}
node {
  name: "save/Assign_1"
  op: "Assign"
  input: "Wc_1"
  input: "save/RestoreV2:1"
  attr {
    key: "T"
    value {
      type: DT_FLOAT
    }
  }
  attr {
    key: "_class"
    value {
      list {
        s: "loc:@Wc_1"
      }
    }
  }
  attr {
    key: "use_locking"
    value {
      b: true
    }
  }
  attr {
    key: "validate_shape"
    value {
      b: true
    }
  }
}
node {
  name: "save/Assign_2"
  op: "Assign"
  input: "Wc_2"
  input: "save/RestoreV2:2"
  attr {
    key: "T"
    value {
      type: DT_FLOAT
    }
  }
  attr {
    key: "_class"
    value {
      list {
        s: "loc:@Wc_2"
      }
    }
  }
  attr {
    key: "use_locking"
    value {
      b: true
    }
  }
  attr {
    key: "validate_shape"
    value {
      b: true
    }
  }
}
node {
  name: "save/Assign_3"
  op: "Assign"
  input: "Wc_3"
  input: "save/RestoreV2:3"
  attr {
    key: "T"
    value {
      type: DT_FLOAT
    }
  }
  attr {
    key: "_class"
    value {
      list {
        s: "loc:@Wc_3"
      }
    }
  }
  attr {
    key: "use_locking"
    value {
      b: true
    }
  }
  attr {
    key: "validate_shape"
    value {
      b: true
    }
  }
}
node {
  name: "save/Assign_4"
  op: "Assign"
  input: "Wc_4"
  input: "save/RestoreV2:4"
  attr {
    key: "T"
    value {
      type: DT_FLOAT
    }
  }
  attr {
    key: "_class"
    value {
      list {
        s: "loc:@Wc_4"
      }
    }
  }
  attr {
    key: "use_locking"
    value {
      b: true
    }
  }
  attr {
    key: "validate_shape"
    value {
      b: true
    }
  }
}
node {
  name: "save/Assign_5"
  op: "Assign"
  input: "Wn"
  input: "save/RestoreV2:5"
  attr {
    key: "T"
    value {
      type: DT_FLOAT
    }
  }
  attr {
    key: "_class"
    value {
      list {
        s: "loc:@Wn"
      }
    }
  }
  attr {
    key: "use_locking"
    value {
      b: true
    }
  }
  attr {
    key: "validate_shape"
    value {
      b: true
    }
  }
}
node {
  name: "save/Assign_6"
  op: "Assign"
  input: "Wn_1"
  input: "save/RestoreV2:6"
  attr {
    key: "T"
    value {
      type: DT_FLOAT
    }
  }
  attr {
    key: "_class"
    value {
      list {
        s: "loc:@Wn_1"
      }
    }
  }
  attr {
    key: "use_locking"
    value {
      b: true
    }
  }
  attr {
    key: "validate_shape"
    value {
      b: true
    }
  }
}
node {
  name: "save/Assign_7"
  op: "Assign"
  input: "Wn_2"
  input: "save/RestoreV2:7"
  attr {
    key: "T"
    value {
      type: DT_FLOAT
    }
  }
  attr {
    key: "_class"
    value {
      list {
        s: "loc:@Wn_2"
      }
    }
  }
  attr {
    key: "use_locking"
    value {
      b: true
    }
  }
  attr {
    key: "validate_shape"
    value {
      b: true
    }
  }
}
node {
  name: "save/Assign_8"
  op: "Assign"
  input: "Wn_3"
  input: "save/RestoreV2:8"
  attr {
    key: "T"
    value {
      type: DT_FLOAT
    }
  }
  attr {
    key: "_class"
    value {
      list {
        s: "loc:@Wn_3"
      }
    }
  }
  attr {
    key: "use_locking"
    value {
      b: true
    }
  }
  attr {
    key: "validate_shape"
    value {
      b: true
    }
  }
}
node {
  name: "save/Assign_9"
  op: "Assign"
  input: "Wn_4"
  input: "save/RestoreV2:9"
  attr {
    key: "T"
    value {
      type: DT_FLOAT
    }
  }
  attr {
    key: "_class"
    value {
      list {
        s: "loc:@Wn_4"
      }
    }
  }
  attr {
    key: "use_locking"
    value {
      b: true
    }
  }
  attr {
    key: "validate_shape"
    value {
      b: true
    }
  }
}
node {
  name: "save/Assign_10"
  op: "Assign"
  input: "b"
  input: "save/RestoreV2:10"
  attr {
    key: "T"
    value {
      type: DT_FLOAT
    }
  }
  attr {
    key: "_class"
    value {
      list {
        s: "loc:@b"
      }
    }
  }
  attr {
    key: "use_locking"
    value {
      b: true
    }
  }
  attr {
    key: "validate_shape"
    value {
      b: true
    }
  }
}
node {
  name: "save/Assign_11"
  op: "Assign"
  input: "b_1"
  input: "save/RestoreV2:11"
  attr {
    key: "T"
    value {
      type: DT_FLOAT
    }
  }
  attr {
    key: "_class"
    value {
      list {
        s: "loc:@b_1"
      }
    }
  }
  attr {
    key: "use_locking"
    value {
      b: true
    }
  }
  attr {
    key: "validate_shape"
    value {
      b: true
    }
  }
}
node {
  name: "save/Assign_12"
  op: "Assign"
  input: "b_2"
  input: "save/RestoreV2:12"
  attr {
    key: "T"
    value {
      type: DT_FLOAT
    }
  }
  attr {
    key: "_class"
    value {
      list {
        s: "loc:@b_2"
      }
    }
  }
  attr {
    key: "use_locking"
    value {
      b: true
    }
  }
  attr {
    key: "validate_shape"
    value {
      b: true
    }
  }
}
node {
  name: "save/Assign_13"
  op: "Assign"
  input: "b_3"
  input: "save/RestoreV2:13"
  attr {
    key: "T"
    value {
      type: DT_FLOAT
    }
  }
  attr {
    key: "_class"
    value {
      list {
        s: "loc:@b_3"
      }
    }
  }
  attr {
    key: "use_locking"
    value {
      b: true
    }
  }
  attr {
    key: "validate_shape"
    value {
      b: true
    }
  }
}
node {
  name: "save/Assign_14"
  op: "Assign"
  input: "b_4"
  input: "save/RestoreV2:14"
  attr {
    key: "T"
    value {
      type: DT_FLOAT
    }
  }
  attr {
    key: "_class"
    value {
      list {
        s: "loc:@b_4"
      }
    }
  }
  attr {
    key: "use_locking"
    value {
      b: true
    }
  }
  attr {
    key: "validate_shape"
    value {
      b: true
    }
  }
}
node {
  name: "save/Assign_15"
  op: "Assign"
  input: "dense1/bias"
  input: "save/RestoreV2:15"
  attr {
    key: "T"
    value {
      type: DT_FLOAT
    }
  }
  attr {
    key: "_class"
    value {
      list {
        s: "loc:@dense1/bias"
      }
    }
  }
  attr {
    key: "use_locking"
    value {
      b: true
    }
  }
  attr {
    key: "validate_shape"
    value {
      b: true
    }
  }
}
node {
  name: "save/Assign_16"
  op: "Assign"
  input: "dense1/kernel"
  input: "save/RestoreV2:16"
  attr {
    key: "T"
    value {
      type: DT_FLOAT
    }
  }
  attr {
    key: "_class"
    value {
      list {
        s: "loc:@dense1/kernel"
      }
    }
  }
  attr {
    key: "use_locking"
    value {
      b: true
    }
  }
  attr {
    key: "validate_shape"
    value {
      b: true
    }
  }
}
node {
  name: "save/Assign_17"
  op: "Assign"
  input: "output/bias"
  input: "save/RestoreV2:17"
  attr {
    key: "T"
    value {
      type: DT_FLOAT
    }
  }
  attr {
    key: "_class"
    value {
      list {
        s: "loc:@output/bias"
      }
    }
  }
  attr {
    key: "use_locking"
    value {
      b: true
    }
  }
  attr {
    key: "validate_shape"
    value {
      b: true
    }
  }
}
node {
  name: "save/Assign_18"
  op: "Assign"
  input: "output/kernel"
  input: "save/RestoreV2:18"
  attr {
    key: "T"
    value {
      type: DT_FLOAT
    }
  }
  attr {
    key: "_class"
    value {
      list {
        s: "loc:@output/kernel"
      }
    }
  }
  attr {
    key: "use_locking"
    value {
      b: true
    }
  }
  attr {
    key: "validate_shape"
    value {
      b: true
    }
  }
}
node {
  name: "save/restore_all"
  op: "NoOp"
  input: "^save/Assign"
  input: "^save/Assign_1"
  input: "^save/Assign_10"
  input: "^save/Assign_11"
  input: "^save/Assign_12"
  input: "^save/Assign_13"
  input: "^save/Assign_14"
  input: "^save/Assign_15"
  input: "^save/Assign_16"
  input: "^save/Assign_17"
  input: "^save/Assign_18"
  input: "^save/Assign_2"
  input: "^save/Assign_3"
  input: "^save/Assign_4"
  input: "^save/Assign_5"
  input: "^save/Assign_6"
  input: "^save/Assign_7"
  input: "^save/Assign_8"
  input: "^save/Assign_9"
}
versions {
  producer: 38
}
